dnas/DARTS/pip/model.pt (torch_old, 320294 bytes, 33 tensors)

emb.0.weight f4 [8, 10]
000000 e4 0f e7 2c 4b 4d 61 29 70 cb 2d a9 cc ab 0e af
       6.567179e-12 5.0027077e-14 -3.859017e-14 -1.2975859e-10
000010 0b 95 e0 2c 93 2a 17 2f 6c 7e 94 27 b0 aa 9a 26
       6.38301e-12 1.3748495e-10 4.121532e-15 1.0732162e-15
000020 4b 6c 01 30 96 c7 ad 2d c3 47 50 3d 3e 74 e5 bd
       4.708382e-10 1.9756457e-11 0.050849687 -0.11203812
000030 8c f6 21 bd 1b 99 6a 3f 06 3c 16 bc 45 1f d6 bc
       -0.039541766 0.9163987 -0.009169584 -0.026137957
000040 65 7e 88 3b ef 0f 49 bf b2 fd b0 3c 46 d4 08 3e
       0.004165458 -0.7853994 0.021605346 0.13362226
000050 19 8c 45 3d 8b 60 1c be d1 ef 34 bd 5c d5 81 3f
       0.04822931 -0.15271203 -0.04417402 1.0143237
000060 ec 00 c2 bb e1 fa d2 bc a7 77 2c 3c 5a 4b 0a bf
       -0.00592052 -0.025754394 0.010526574 -0.5402123
000070 9b bd 43 3d 36 4a 73 3e 84 14 83 3f 6c b7 7b bf
       0.047788244 0.23758778 1.0240636 -0.98326755
000080 94 09 66 bf 3f 41 20 3e 8c 6a 4f bf 09 ec 26 bf
       -0.89858365 0.1564989 -0.8102195 -0.6520391
000090 f8 9b 65 3f 12 b7 27 be c0 c8 62 bf 10 8c bf bc
       0.89691114 -0.1637843 -0.8858757 -0.023382217
0000a0 27 b6 0b bf 76 2d 39 3f ac ba e8 3e 1c 5d ef be
       -0.5457482 0.7233499 0.4545492 -0.46750724
0000b0 2c 69 13 3f 4a e1 9b 3f c5 63 79 bf cd f2 79 be
       0.57582355 1.2178128 -0.9741786 -0.24409027
0000c0 02 3f e4 3e f9 c8 f8 3f 3f 24 73 be 1f 11 87 3f
       0.4457932 1.9436332 -0.23744296 1.05521
0000d0 1e b6 b5 3e 57 fc 66 bf 68 09 84 3f a5 4f 81 3f
       0.35490507 -0.9022879 1.031537 1.010243
0000e0 ba cf 8c bf c9 2a 9a 3f 62 84 c0 3f 48 91 44 40
       -1.1000893 1.2044307 1.50404 3.0713673
0000f0 3d 0b 88 bf 20 e4 d3 bd f7 ef 71 3f c9 5b 79 3c
       -1.062843 -0.10346246 0.9450678 0.015219637
000100 f4 83 5c bd 9b db 8a 3b 90 a1 a3 3d 07 d2 97 3e
       -0.053836778 0.004237605 0.079898 0.29652426
000110 53 ad 38 be 79 42 4c 3f 6e e9 3f b5 3f 6a 99 35
       -0.18034868 0.7978893 -7.149273e-07 1.143031e-06
000120 70 5f c5 30 fb 9a 9d b6 c8 05 89 b3 0b fe 76 37
       1.4360761e-09 -4.6970067e-06 -6.380611e-08 1.4721892e-05
000130 52 43 93 34 24 90 9a af cb ec a9 33 87 68 28 ab
       2.7429866e-07 -2.8114855e-10 7.912748e-08 -5.983065e-13

emb.1.weight f4 [8, 10]
000000 6f 54 66 2e ae 99 bd a8 01 b8 04 b0 ae cc ae 30
       5.2370937e-11 -2.1049863e-14 -4.8282806e-10 1.271834e-09
000010 0a 9d 85 33 0a 04 40 28 ee d6 7c 2e d9 12 c0 b0
       6.2218604e-08 1.0659017e-14 5.7489062e-11 -1.3975195e-09
000020 f0 c4 c3 b3 57 18 3c 2f a5 fd ba bf 59 ae 9c be
       -9.116218e-08 1.7107148e-10 -1.4608656 -0.30601767
000030 81 10 4a be c4 67 57 be 3e bf cb 3c e3 5f 1f 3e
       -0.19732858 -0.21035677 0.024871465 0.15563922
000040 4f 4f c3 3e 42 99 46 bf 99 ba 09 3f 22 55 57 bc
       0.38146445 -0.775776 0.5380035 -0.013142856
000050 b2 1f d1 bf 3b 95 e6 be 84 36 25 be 4d f6 1f be
       -1.6337798 -0.4503573 -0.16134077 -0.156213
000060 07 c7 da 3c 74 da 23 3e 2a 5f a3 3e e2 7a 16 bf
       0.026706232 0.16001302 0.31908542 -0.58781254
000070 9c 4e 12 3f 61 b8 c2 bc 32 c3 72 3f 00 fa 7b bf
       0.571512 -0.02376956 0.94829094 -0.98428345
000080 3a 93 71 bf 10 e3 06 c0 8b 23 fd be d5 5f d7 be
       -0.94365275 -2.1076088 -0.4944118 -0.42065302
000090 c5 ce 9a 3f 4e f0 bc be 07 a5 8c 3e 0b 42 2c 3f
       1.2094351 -0.36902088 0.27469656 0.67288274
0000a0 c9 75 b5 be 30 fb a4 3e 2d 9b 5d 3f 9a ce d8 3d
       -0.35441425 0.3222289 0.86564904 0.10586281
0000b0 95 11 d6 3e da 01 86 3f a0 6b 1c be be c8 45 3f
       0.4181029 1.0469315 -0.1527543 0.77259433
0000c0 45 48 01 bf 03 8d e0 be 43 ab 19 bc ed 26 60 3f
       -0.505009 -0.43857583 -0.009379211 0.87559396
0000d0 fd c2 3d 3f 18 09 11 3f c2 a6 a5 3f ab 71 2f bf
       0.74125654 0.566545 1.2941515 -0.6853282
0000e0 42 3b 20 bf 71 aa 7b 3f af d7 5f bf c4 b9 84 bf
       -0.6259042 0.9830695 -0.8743848 -1.0369191
0000f0 21 b5 c0 3d a7 72 49 bb ce 5c e4 3b 16 ef cd 3b
       0.094095476 -0.0030738504 0.006969071 0.006284605
000100 38 33 1d bc 5b 4c af bd e0 02 14 3b 45 a6 35 3d
       -0.009594731 -0.085594855 0.0022584721 0.04434802
000110 18 49 77 bc 1c b9 62 ba c4 cf 00 a8 ba 90 0d 2a
       -0.0150931105 -0.0008648799 -7.150479e-15 1.2573528e-13
000120 a2 36 93 a8 c1 58 47 a9 92 3b 5a ac 61 23 1d aa
       -1.6343972e-14 -4.4263858e-14 -3.1012731e-12 -1.3956676e-13
000130 7f 8a 35 ac 8b 64 34 29 0f c5 7b 2a a2 9a 71 ae
       -2.5798528e-12 4.0055236e-14 2.2361647e-13 -5.4934397e-11

emb.2.weight f4 [8, 10]
000000 1c 49 b9 3a f8 bf 46 3b 4f 42 43 3d 80 dd b6 bc
       0.0014136168 0.0030326825 0.04767066 -0.022322416
000010 54 3a 1a 3c 29 03 6a bc 87 25 20 3b 51 26 81 3b
       0.009413321 -0.01428298 0.002443643 0.0039413352
000020 25 f3 a2 3a 7b ca 03 bd 9c 64 01 bd 8f d5 28 bd
       0.0012432082 -0.032175522 -0.03159009 -0.04121929
000030 58 84 f5 3e 5a 43 14 bf 1c da 37 be 1d 69 57 bd
       0.47952533 -0.5791527 -0.17954296 -0.05259048
000040 a0 a4 78 bc fc 2e 69 3c 53 8c 0f bf c2 51 17 bf
       -0.015175968 0.014232393 -0.5607349 -0.5910913
000050 67 c4 94 3b 57 7c 16 bd 9f bc 43 3f a5 0b 8b be
       0.0045400145 -0.036739673 0.7645969 -0.27157322
000060 ee 96 aa be 0c 35 d4 bc f2 9a 0b 3c fb 3d 32 3d
       -0.33318275 -0.025904201 0.008520829 0.04351614
000070 5f 84 8d be d5 33 22 bf b3 ee 82 bf b0 e4 8b bf
       -0.27640054 -0.6336034 -1.0229095 -1.0929165
000080 96 54 63 3e 81 45 43 be 60 96 3f bf 44 e8 51 3f
       0.22200236 -0.19069482 -0.7483883 0.81995034
000090 af 3e 22 bf ff a1 8d 3f 52 7d 1b bf e1 5f 4d bd
       -0.633769 1.1065062 -0.607381 -0.050140265
0000a0 05 b1 f2 3e 9e 0c 9d 3e c6 f0 ec be 88 5c 18 3f
       0.4740068 0.3067369 -0.46277446 0.5951619
0000b0 67 c4 3f 3f 8e c8 60 bf 41 1c 2c 3f 6c 32 17 bf
       0.7490906 -0.8780602 0.6723061 -0.5906131
0000c0 d2 e3 52 3f d5 76 cf 3e 4a d1 90 3f fb 00 82 3f
       0.82378876 0.4052035 1.131387 1.0156549
0000d0 32 28 9e bf b6 d3 aa 3f 34 61 5d 3f 1b a1 ca bf
       -1.2356017 1.3345859 0.86476445 -1.5830415
0000e0 36 5a a8 3f 7c d6 10 bf 73 d1 4f 3f 89 0e 6e 3f
       1.315253 -0.5657728 0.8117897 0.9299093
0000f0 8a bb 0b 3b f9 17 01 3c cf 2c 32 be 0e 0c cc 3d
       0.0021321499 0.007879251 -0.17399906 0.09963237
000100 04 af 15 3d ae 42 d9 3d 93 a9 7a 3b 27 0a 9f 3c
       0.03654386 0.10608421 0.0038248047 0.01941402
000110 1f 32 9a 3d db 8f 2f 3e 80 f8 5e af cc a2 82 b7
       0.07529091 0.1714472 -2.0279067e-10 -1.5573016e-05
000120 5f 96 ba 2f 9a dc c8 2f 89 7d 13 28 91 d0 10 2b
       3.3940048e-10 3.6536535e-10 8.18736e-15 5.144852e-13
000130 6b 1a 18 a7 fe c4 fd ab d9 4b 21 a8 ce f3 ac 32
       -2.1108559e-15 -1.8031408e-12 -8.953742e-15 2.0134305e-08

emb.3.weight f4 [8, 10]
000000 6f 70 b6 3c 95 60 2a bf bc 0a b5 bc 4b a8 8e 3c
       0.02227041 -0.6655362 -0.022099845 0.017414233
000010 bf 7c ef 3d aa 38 bd 3c 1d 86 9f bc 01 ad ec bc
       0.11693715 0.023098309 -0.01947313 -0.028891088
000020 ef c6 8e bc aa 94 fb bc a5 2c b9 3e 6f a7 12 bf
       -0.017428843 -0.030710537 0.36166874 -0.57286733
000030 ed 4c 8c be 6b 64 24 3d 63 2a 59 3f 7f 73 02 3f
       -0.2740244 0.04013483 0.848303 0.50957483
000040 22 76 41 bd f3 7c 85 be 6a 71 fa bd 4c 59 f7 be
       -0.0472318 -0.2607189 -0.12228663 -0.48310316
000050 f9 34 bb 3e 67 d7 35 bf e4 32 8c be ef 8d 02 3d
       0.36563852 -0.710318 -0.27382576 0.03187364
000060 c8 60 24 3f 38 da 1e 3f 9b 31 b3 bc 62 21 53 be
       0.64210176 0.62051725 -0.02187424 -0.20618203
000070 6c 98 fb bd 2e 71 23 bf 99 33 c3 3f 7f 7d c3 3f
       -0.122849315 -0.63844573 1.5250121 1.5272673
000080 91 96 36 bf 4a 52 3a 3f 9f 36 cf 3e 35 db a0 3e
       -0.71323496 0.72781813 0.4047136 0.31417242
000090 10 0e ac bf 04 59 5c 3f 8c 05 60 bf 96 c1 17 bf
       -1.3441792 0.8607333 -0.87508464 -0.59279764
0000a0 ce c3 ed be 6c ae 64 3e 17 5a c6 3e 2f 23 ef be
       -0.4643845 0.22332162 0.38740608 -0.4670653
0000b0 d9 c6 35 bf 73 1c c5 be 97 23 0d 3f 14 74 0c bf
       -0.7100654 -0.38498268 0.5513243 -0.5486462
0000c0 17 54 a8 3e 7f 82 22 3f 54 80 80 bf 6c ad 56 be
       0.32876655 0.6348037 -1.0039163 -0.20964593
0000d0 b1 5a 52 3f 72 93 9b bf a5 e4 87 bf d1 ef 4d bf
       0.82169634 -1.2154372 -1.0616652 -0.80444056
0000e0 8c 81 43 3f f9 55 08 3e ee 3e 35 3f f7 e4 a5 3f
       0.7636955 0.13314046 0.7079915 1.29605
0000f0 67 b9 55 3d 98 39 88 3d 22 e5 cf 3c 32 af 1c bc
       0.052178767 0.0665161 0.025377814 -0.009563254
000100 ec 99 87 bd 1e 92 01 bd 6f c8 9d bb 35 ed 3d 3e
       -0.06621155 -0.03163349 -0.0048151533 0.18547519
000110 c0 ce 00 3c 8c f7 ce 3b e6 b0 7d 31 04 f3 27 2b
       0.007861793 0.006316131 3.69169e-09 5.966757e-13
000120 a1 2a bc 27 cf 56 c0 b5 bc 18 1b b3 97 f2 5a b0
       5.22267e-15 -1.4330379e-06 -3.6111246e-08 -7.965268e-10
000130 e4 00 87 b5 9b ff f8 31 b9 bf c1 31 96 48 d0 a7
       -1.0058543e-06 7.246809e-09 5.6388356e-09 -5.7810295e-15

emb.4.weight f4 [8, 10]
000000 ae b7 80 3d 8d 6e 06 bd b1 8f 14 bd 9c b7 0b 3e
       0.06285034 -0.032820273 -0.036269847 0.1364426
000010 41 d0 ae 3e 51 6c 9a bd fd b5 da 3d 22 08 6f 3d
       0.3414326 -0.07540191 0.10679243 0.058357365
000020 3a 02 da 3c 3e 91 e7 3d 07 61 9b 3e e0 f6 c3 bd
       0.02661239 0.113069996 0.30347463 -0.09568572
000030 f6 8a cd be 0a 39 28 be 2e a8 81 3f ea f2 7d bf
       -0.4014508 -0.16428009 1.0129449 -0.9919878
000040 0e c4 89 3e 07 65 93 3f d2 17 37 3e 25 2b b7 3e
       0.2690739 1.1515206 0.1788018 0.35775104
000050 83 c7 af 3e 28 3f 27 be cf ce 0f bf 11 2b 10 3f
       0.34331903 -0.16332686 -0.5617494 0.56315714
000060 ad 6c 8d 3f 8d ae 81 bf 18 4a 15 be cf 08 05 3e
       1.104879 -1.0131394 -0.14579046 0.12991641
000070 a2 75 9e 3e 9c e5 90 3e 16 e2 e6 3f 2c 3b 85 bf
       0.30949122 0.28300178 1.8037746 -1.0408683
000080 0b f1 08 bf 99 24 dc 3f 8a 2f 84 3e 77 ed 90 3f
       -0.534928 1.7198669 0.2581752 1.1322469
000090 54 69 93 3f e1 58 97 3f 1d 3d 90 3f 82 4b a2 3f
       1.1516519 1.1823999 1.126865 1.2679293
0000a0 36 ad b2 bd 24 3b d5 3e a4 8f ef 3e 6f 3c 1a bf
       -0.087244436 0.41646683 0.46789277 -0.60248464
0000b0 d3 87 f8 be 9e e0 6e bc 2c 23 14 bf 54 75 f4 be
       -0.48541126 -0.01457992 -0.5786617 -0.47745764
0000c0 74 76 c8 be 90 8c bd be 88 b6 a1 be 6c d6 85 3f
       -0.39152873 -0.37021303 -0.31584573 1.0456061
0000d0 a7 97 59 3f c9 e4 30 bf b2 a0 5d bf 96 b6 97 3e
       0.8499703 -0.690991 -0.86573327 0.2963149
0000e0 2b 47 86 bf 4a e7 85 bf 9d d1 68 bf 71 45 8e bf
       -1.0490469 -1.0461209 -0.90944844 -1.1114942
0000f0 4a 56 ba 3c 59 ff 59 bc 61 e0 b1 bb 19 49 81 3d
       0.022746224 -0.0133055085 -0.0054283594 0.063127704
000100 f4 a6 66 3c 92 c8 db 3e cc 54 0d 3e e0 d6 b9 3d
       0.014077891 0.4292646 0.13801879 0.09074187
000110 f6 65 1d 3d b2 6d 4f bd dd ce 04 ac d4 09 4f 2f
       0.038427316 -0.050641723 -1.887316e-12 1.8830032e-10
000120 b0 2b 41 30 fa aa 44 2e 9f 36 f6 34 2e e7 07 b2
       7.0275075e-10 4.4717098e-11 4.5860813e-07 -7.910598e-09
000130 12 71 d2 2c bc d2 d4 a9 66 d8 cd ac 5c e1 6c 32
       5.9811123e-12 -9.451248e-14 -5.8504755e-12 1.3788249e-08

emb.5.weight f4 [8, 10]
000000 6a e7 0d be bb 4e 7a 3d 99 0c 2c be 80 10 d3 be
       -0.13857809 0.06111024 -0.1680168 -0.41223526
000010 b0 f8 ba 3e b4 5b a9 be 03 18 60 3e b8 f0 63 3d
       0.36517859 -0.33077776 0.2188416 0.05564949
000020 64 91 28 3e 57 15 48 be 72 0f f7 be d6 1c c4 3e
       0.16461712 -0.1953939 -0.4825397 0.3830325
000030 2a e6 4d bf 70 63 50 bb 18 c2 69 3f 23 0a 56 3c
       -0.8042933 -0.003179755 0.9131179 0.01306394
000040 a5 b6 a1 3e 79 2b 17 3f 0e cd a0 be 15 20 c4 bc
       0.3158466 0.5905071 -0.31406444 -0.02394108
000050 7e 0d 26 bf 5d a6 45 bd 63 0c 1e bf 56 4c 2c be
       -0.6486434 -0.04825436 -0.6173765 -0.16825995
000060 1a da 05 3f b4 ad 00 bd 9c ef be 3e 96 ae 43 3f
       0.5228592 -0.031415656 0.37292182 0.7643827
000070 b5 08 01 3e 04 76 90 be 29 f4 e6 be d3 f9 ac bf
       0.12600978 -0.2821504 -0.45108154 -1.351374
000080 1e 7e 20 3f 58 81 a0 3f b5 2e 69 3e 40 87 32 3e
       0.6269244 1.2539473 0.22771724 0.17434406
000090 ea f3 ad 3f f7 13 47 3f 2a 53 93 bf c9 a0 91 bf
       1.3590062 0.7776484 -1.1509755 -1.1377193
0000a0 4d af f1 3e e1 6b 31 3f 3d 61 05 3f 0f f1 85 bf
       0.47204056 0.69305235 0.521015 -1.046419
0000b0 61 b6 b9 be 4f bc cc 3e 8a 7c 75 be 22 1f 0e bf
       -0.36271957 0.39987418 -0.23973289 -0.55516255
0000c0 8a b5 02 3f 01 c4 07 3f 9d 90 97 3f 3b 9a 12 3e
       0.51058257 0.53033453 1.1841007 0.14316647
0000d0 c1 b3 ab 3f a2 f4 f5 be cd 12 62 bf 63 37 99 3f
       1.3414232 -0.48038203 -0.8830994 1.1970028
0000e0 1d 8e 4c bf bc a1 66 bf ff 52 83 3f ed 40 80 3f
       -0.7990435 -0.9009054 1.0259703 1.0019814
0000f0 e9 5d 47 3d 1c 94 c3 3e 9f 83 85 3c 18 82 2a 3e
       0.048673544 0.38198936 0.016298113 0.1665119
000100 ba df 2a bc 8d 18 7b bf f6 f0 34 bd 8e e6 11 bd
       -0.010429317 -0.98084337 -0.04417511 -0.035620265
000110 b8 f6 14 3e 2a 3c 9a 3c fb 0f 0c af 00 36 8b 35
       0.1454724 0.018827517 -1.2738603e-10 1.0372023e-06
000120 fa 16 44 b6 61 8c 30 ae 74 b3 6e a9 13 82 0f 33
       -2.921965e-06 -4.014245e-11 -5.3002267e-14 3.3413084e-08
000130 b8 59 7c 30 8b 86 eb 36 02 ed dd a5 d7 c3 9f 2a
       9.1804564e-10 7.0192086e-06 -3.8497992e-16 2.8379965e-13

emb.6.weight f4 [8, 10]
000000 7a fe 7b 3c c0 82 31 3c 42 52 8a bd c3 3a 14 be
       0.015380496 0.010834396 -0.06753971 -0.14475541
000010 b3 3f 64 bd 0a ea df 3d 9b ef 85 3c ce 22 97 be
       -0.05572481 0.10933311 0.016349604 -0.2951874
000020 5c 31 58 bc 66 02 97 3d 90 a7 c5 3d d2 66 70 bd
       -0.013195362 0.07373504 0.09651101 -0.058691807
000030 a1 64 29 bf aa de d3 3d 6d 82 be be 20 fa 8d 3e
       -0.6616917 0.10345204 -0.37208882 0.27729893
000040 29 36 84 be 9b 1a 34 bf 85 ce 9d bd 9d cf 0e 3c
       -0.2582257 -0.70353097 -0.07705406 0.008716491
000050 37 c9 cb 3c a0 0f 11 bd 61 ca 0e bf 85 4e 39 3d
       0.02487622 -0.03541529 -0.55777556 0.045240898
000060 75 f1 87 be f2 96 41 3e 6a 2a f0 be 2e ef 81 bf
       -0.26551405 0.18905237 -0.4690736 -1.0151117
000070 17 62 39 bd 00 1a 3d bd 21 25 a1 3f 4c 51 05 bf
       -0.04525956 -0.046167374 1.2589456 -0.52077174
000080 46 2b 23 bf 86 69 8f bf 48 cb 8c bf c1 01 ba 3f
       -0.63737905 -1.1204078 -1.0999537 1.4531785
000090 bb d0 57 bf 09 04 be be 6b b8 2d 3f a1 32 81 bf
       -0.8430287 -0.37112454 0.67859524 -1.0093576
0000a0 19 92 c5 be a4 c6 72 3f 43 77 80 3e 99 d7 43 3f
       -0.38588026 0.9483435 0.2509099 0.7650085
0000b0 b9 33 17 3f de 01 24 be 83 85 00 3f fa 50 33 3f
       0.590633 -0.16016337 0.5020372 0.70045435
0000c0 3d ff 52 bf 85 20 1a 3f 22 97 8e bf a2 e5 d7 bf
       -0.8242071 0.6020587 -1.1139872 -1.6866953
0000d0 08 30 17 3f 6c 22 33 3f 45 7c 1d 3f 53 da 21 bf
       0.59057665 0.699744 0.61517745 -0.6322376
0000e0 11 45 87 3f 29 df 69 3f 50 35 07 40 59 6f 7d be
       1.0567952 0.9135614 2.112629 -0.24749507
0000f0 1b 26 61 bc 1f e8 14 3e 13 a4 92 3d 64 30 d7 3d
       -0.013741995 0.14541672 0.07160201 0.10507277
000100 42 5b 3b 3e 5a 68 1a 3d 64 a8 e1 3a 14 c1 f2 bc
       0.18296531 0.037697174 0.0017216322 -0.029633082
000110 c3 77 37 be 40 61 9e be bb d2 05 36 bf 97 71 a9
       -0.17916779 -0.3093357 1.9941206e-06 -5.364437e-14
000120 b2 56 56 29 a8 0d 2d 32 58 26 79 33 18 43 a9 b4
       4.759274e-14 1.007303e-08 5.8009704e-08 -3.152752e-07
000130 25 4c a9 27 a8 70 55 35 d0 5f bb 2e 0a 7a 7b 2b
       4.698948e-15 7.951262e-07 8.520795e-11 8.9342477e-13

emb.7.weight f4 [8, 10]
000000 4a ad c9 bc a6 49 9e bc f4 88 5a 3b 55 66 df 3c
       -0.024618763 -0.019322228 0.003334579 0.027270475
000010 f8 13 35 3c 4c db 36 3e 26 a4 93 bb f0 44 07 3c
       0.011052124 0.17857093 -0.004505652 0.008256182
000020 3b 62 42 3c 2d 83 c0 bb 0a a6 40 be d4 a8 a1 be
       0.01186424 -0.0058750124 -0.18813339 -0.31574118
000030 e6 e9 87 bc 2d 0a 6e 3f 41 f0 88 3d ee 09 f7 3d
       -0.016591024 0.92984277 0.0668645 0.12062441
000040 21 f3 ab bc ae 77 8e be f5 7b f6 3c c0 46 e8 bc
       -0.020989956 -0.27825683 0.030088404 -0.028354049
000050 1c d4 10 be 14 cb e0 bd e2 c4 3f bd d0 c1 2f 3f
       -0.14143413 -0.10976234 -0.04681862 0.6865511
000060 c0 5a b2 3d 23 73 1b 3e 14 9f 33 bd 62 9e 3e bf
       0.087087154 0.1518064 -0.04385288 -0.74460423
000070 01 a6 84 3c 0a d2 ac 3c 69 91 13 bf b5 63 0c bf
       0.016192438 0.021096248 -0.57643753 -0.5483964
000080 01 84 1b bf aa 3f 97 bf 1b b5 31 3f 9c 1e 89 bc
       -0.60748297 -1.1816304 0.6941697 -0.016738228
000090 5f 06 e9 3e 29 76 1b bf 78 fc fa 3e da 6a 0c 3f
       0.45512673 -0.60727173 0.49020743 0.5485054
0000a0 06 b2 f2 3e 89 08 8d 3f 73 b9 3d 3f af 4f 3e 3c
       0.47401446 1.101823 0.741111 0.011615678
0000b0 dc 09 b1 be c6 93 e7 3f aa 2b a5 bf c8 1d 94 3f
       -0.34577835 1.8091972 -1.290395 1.1571589
0000c0 41 a1 d6 be b3 db 36 bf 4c 21 a4 3f 45 11 90 3f
       -0.41919902 -0.71428984 1.2822661 1.125527
0000d0 be 5a 86 3f 83 18 6c 3e df c7 8d bf fb 28 21 40
       1.0496442 0.23056225 -1.1076621 2.5181262
0000e0 40 96 e1 bf 02 13 89 3f e8 ca 86 bf 34 56 95 bf
       -1.7623978 1.0708926 -1.0530672 -1.1666932
0000f0 af c7 c4 3e e2 ab f0 3d 0f c4 65 3c 7b 69 99 be
       0.38433596 0.11751534 0.014023795 -0.29963288
000100 8e c5 e2 bd e6 e1 ff bc 0f 68 2f be b8 dd d9 3d
       -0.11072837 -0.031235646 -0.17129539 0.106379926
000110 24 ec 71 bd 30 1b 80 3a 26 07 a8 b1 ed df 84 a8
       -0.059063092 0.0009773728 -4.890256e-09 -1.4752056e-14
000120 6d 18 05 2e 03 33 0a 31 1c a4 c5 ab 0c df 8a 2c
       3.0262393e-11 2.011064e-09 -1.4043241e-12 3.946959e-12
000130 07 fb ae b5 08 5a 4c b5 05 c1 61 33 7b f8 01 b1
       -1.3037069e-06 -7.6126935e-07 5.2562445e-08 -1.8913215e-09

emb.8.weight f4 [8, 10]
000000 44 d8 32 3d 92 61 9c bd 3c d5 f6 3c 5a 8a 1f 3d
       0.04366328 -0.076357976 0.030130975 0.0389503
000010 9f 20 c4 bc d3 70 17 3f e9 47 e6 3d eb fd 89 bd
       -0.023941336 0.5915653 0.112441845 -0.06737884
000020 b8 a6 d9 bc 05 85 6c 3d d4 11 c1 bd 0e 05 b4 3e
       -0.026568756 0.057744045 -0.094272286 0.35160106
000030 bd 30 a6 3e 81 a4 55 3f a1 57 f9 bd c6 c2 9d 3f
       0.3245906 0.8345414 -0.12174917 1.2325065
000040 6a fd e1 bb b0 b7 96 3d 53 e1 53 be 80 a5 fc 3e
       -0.0068966644 0.07359254 -0.20691423 0.49345016
000050 85 b3 8c bd d0 0e 9c 3e 66 51 4b 3f 78 8f 92 3e
       -0.06870178 0.3048005 0.7942108 0.28625083
000060 76 b2 3d be 34 af af 3e 23 cc 2e 3d 01 a6 f3 be
       -0.18525109 0.34313357 0.04267515 -0.47587588
000070 d6 cb a0 bd 72 03 8b 3e a3 7d 2d 3f 40 a1 f3 be
       -0.078513786 0.27151066 0.6776983 -0.4758396
000080 c3 af 30 3f fc 90 26 3f a7 bd a2 bf e1 20 b6 bf
       0.6901819 0.6506498 -1.2714127 -1.4228784
000090 57 32 36 be 55 12 35 bf aa cf c8 bf 7d eb 7c 3f
       -0.1779264 -0.707311 -1.5688374 0.98796827
0000a0 c3 26 35 bf bd dc 59 3f 19 fb fe be 8a aa 01 bf
       -0.7076227 0.85102445 -0.49800947 -0.50650847
0000b0 ca ec e9 3e 6d 73 c2 bd d8 7a 90 3f e9 f6 50 3f
       0.45688468 -0.09494672 1.1287489 0.81626755
0000c0 b7 62 39 3f d1 a6 0a bf c0 ac b7 bf 06 4d b0 be
       0.7241625 -0.5416079 -1.4349594 -0.34433764
0000d0 ea bc 3b bf 68 35 8f bf 2b aa 78 3f e1 98 37 be
       -0.73335135 -1.1188173 0.97134656 -0.17929412
0000e0 ca 9e 80 bf 70 4d 9d 3f cf 3c 21 3f 43 07 70 bf
       -1.0048459 1.2289257 0.6298341 -0.9376108
0000f0 97 51 89 3e ba 25 46 bf a4 2b 7c bd 48 75 99 bd
       0.2682006 -0.77401316 -0.061565056 -0.07493073
000100 a1 b4 89 3d 87 f9 bd 3e 65 eb 11 3f 6b 57 ad bd
       0.06723905 0.37104437 0.5699981 -0.08463939
000110 a8 57 ee 3b 91 30 48 be 91 a5 ab ae 6d 23 c6 2c
       0.007273633 -0.19549777 -7.80559e-11 5.6314315e-12
000120 dd d4 e4 b2 9d 35 32 a7 88 07 b7 a7 85 10 8c 2f
       -2.6639492e-08 -2.4731526e-15 -5.080087e-15 2.547759e-10
000130 cd f9 96 ab 67 1a ad 2c ee 07 8a 34 06 75 37 ae
       -1.0727475e-12 4.919887e-12 2.5710273e-07 -4.171332e-11

emb.9.weight f4 [8, 10]
000000 af 94 95 3c 90 9f 43 ba b8 48 3a bd ff b9 18 bd
       0.018259374 -0.00074624363 -0.045479506 -0.037286755
000010 37 50 ec 3c ff a6 ae be f7 00 1e 3d f1 b7 00 3d
       0.028846843 -0.34111783 0.03857514 0.03142542
000020 44 43 0d bf 3e a8 dd 3c 83 3c 6e 3d 63 b5 8a 3d
       -0.55180764 0.027057763 0.058163177 0.06772878
000030 c0 31 7d 3d 16 ec fa be 99 b7 cf 3e 3e e1 04 bf
       0.061815023 -0.49008244 0.4056976 -0.5190619
000040 ca 91 70 be 60 8e 3d 3e d9 e5 9e be 90 31 23 3e
       -0.23493114 0.18511343 -0.31034735 0.15936875
000050 0a 8a eb 3c 61 36 6b 3d 0b 46 fe 3d 84 a2 22 bf
       0.028752346 0.057424907 0.124157034 -0.6352923
000060 0c 63 83 3d 62 3a d5 be a2 81 fa be ae 5d 7b 3e
       0.06415376 -0.41646105 -0.48927027 0.24547455
000070 0c 9d 00 bf 81 4a 9d 3e 5a f2 7b 3f 3c 71 fc 3e
       -0.50239635 0.30720904 0.98416674 0.4930514
000080 5e 14 9a bf 35 90 8d be 5c aa 31 3f b9 51 8f 3f
       -1.2037466 -0.27649084 0.6940057 1.1196815
000090 27 dc 78 bf f2 f6 a1 3f 73 eb 3b be 70 9f 63 3f
       -0.97210926 1.2653487 -0.18351535 0.8891516
0000a0 21 9b 0c bf 9f ca 73 bf 7c 3c fa 3e 5e 0a b7 3e
       -0.5492421 -0.9523105 0.4887427 0.35750097
0000b0 59 4f 31 bf 2a 86 0c 3e 37 23 11 3f 32 af 84 be
       -0.692617 0.13723055 0.5669436 -0.25914913
0000c0 ff 43 11 3f 1d c8 92 be 26 e8 2e bf fb d1 96 bf
       0.5674438 -0.286683 -0.6832298 -1.1782831
0000d0 e8 61 a6 3f 02 f9 5c 3f 12 6a cb bf 8d 98 08 3d
       1.2998629 0.86317456 -1.5891745 0.03334861
0000e0 42 98 3a 3f e7 76 11 bf 6e 67 80 3f f1 f3 43 bf
       0.72888577 -0.56822056 1.0031564 -0.765441
0000f0 f8 ad d3 3c 93 41 3a be 5b 0e 82 bd df cd a6 3d
       0.02583979 -0.18189077 -0.06350394 0.081447355
000100 6f fb af 3a e7 28 6d 3e ef 8e 66 bb b5 e6 d3 bc
       0.0013426373 0.23160134 -0.003518041 -0.025866846
000110 3a c4 03 3e e1 1f 5a bc b8 b1 1f af ce f1 4b 2a
       0.12867823 -0.013313265 -1.4524104e-10 1.8113915e-13
000120 50 4b 2a b5 87 f0 8c 2d 4d e3 14 30 97 e8 cf 2a
       -6.343953e-07 1.6022973e-11 5.41651e-10 3.6931978e-13
000130 2e d1 06 29 22 36 17 ad 36 db 0a 31 4b 42 9b b4
       2.993541e-14 -8.595376e-12 2.020625e-09 -2.8919234e-07

emb.10.weight f4 [8, 10]
000000 e3 27 15 be b4 fa 96 bd cd 0a ed bc c9 b5 00 3d
       -0.14565997 -0.073720366 -0.028935814 0.031423364
000010 46 cb 65 bc 98 ab 97 3e 74 f9 73 bf a8 61 0c bd
       -0.014025515 0.29623103 -0.9530251 -0.03427282
000020 b3 32 1b bc 6f 40 d4 3c 9c 55 51 ba e9 09 89 be
       -0.009472537 0.02590963 -0.0007985474 -0.26765373
000030 90 27 84 be 2f 21 3e 3f b2 e8 34 be 77 56 22 3f
       -0.25811434 0.74269384 -0.17666891 0.63413185
000040 30 c3 23 bf 84 4d 1f bf a3 5c d9 be b8 7c 19 3e
       -0.6396971 -0.62227654 -0.4245349 0.14988983
000050 82 be 51 bf 09 6f 1a bf 5c c3 2a be 2f 6d 8b 3e
       -0.81931317 -0.60325676 -0.16676086 0.27231738
000060 5c d8 88 3d 9d cc 57 3f 61 29 c8 be 9e 55 ef bd
       0.06681892 0.8429659 -0.3909407 -0.11686252
000070 10 74 19 bf 6b 86 28 3e 96 bc b4 bf 10 bf 11 bf
       -0.5994272 0.16457526 -1.4120052 -0.56932163
000080 57 11 ab bf d8 02 73 3f 3b 26 0c 3f 2c 5d 05 bf
       -1.3364667 0.94926214 0.54745835 -0.52095294
000090 a3 7f 35 3e 1a ec 87 bf 0d f2 53 3f 37 b4 9d 3f
       0.17724471 -1.0618927 0.82791215 1.2320622
0000a0 8b bb 42 3f 12 7f 00 3f 92 20 77 3e 86 17 4c bf
       0.7606742 0.50193894 0.24133518 -0.79723394
0000b0 3a e0 5e bf f3 fa 2e be 39 6f 3a 3e 9b f3 a9 3e
       -0.8706089 -0.17087917 0.1820649 0.3319367
0000c0 d7 8a 0f bf 57 e4 98 be 4f e0 61 3f 41 0d a3 3f
       -0.5607123 -0.2986171 0.8823289 1.273842
0000d0 88 cf 23 3f 52 e3 33 bf e5 bd c2 bf 38 ad 0e bf
       0.6398854 -0.7026874 -1.5214201 -0.5573306
0000e0 5d 61 2d 3f 1e f5 82 3f 38 3b 03 bf ff cd 1d bf
       0.6772669 1.0231054 -0.51262236 -0.6164245
0000f0 44 4e 18 bc de 3f ba 3d 54 c7 88 3c de 67 c6 bd
       -0.009296004 0.09094213 0.01669661 -0.0968778
000100 50 1d a2 3f 18 f0 38 be 57 c7 34 be e3 47 e2 3c
       1.2665195 -0.18060338 -0.17654167 0.027622169
000110 c9 ef 8e 3d ee 95 8f bb 37 82 d3 b4 2e 69 f3 b4
       0.06979329 -0.0043818867 -3.9396556e-07 -4.5338805e-07
000120 03 bd 00 2c 2f b0 ed ad 3a 01 85 aa 0b a4 d3 b0
       1.8294817e-12 -2.7022022e-11 -2.3626397e-13 -1.5398894e-09
000130 f7 a9 c2 2e c6 be 6e b4 2b 9c 94 b1 45 fe 38 b2
       8.8522904e-11 -2.223488e-07 -4.325121e-09 -1.0768024e-08

emb.11.weight f4 [8, 10]
000000 af ae 20 bd 43 64 de bc a1 80 69 bd e7 31 f2 3e
       -0.03922909 -0.027147418 -0.057007436 0.47303697
000010 87 e5 dc 3c fe f2 f5 3c 16 91 b1 3c c0 6d a8 bc
       0.026964916 0.030023094 0.021675628 -0.020560145
000020 83 6a 9f 3d 4c 7f 01 3d 6b 2d 45 bd 7c a0 2d be
       0.077839874 0.03161554 -0.048139017 -0.16955751
000030 c5 66 14 bf d6 14 c1 bd 80 7c c6 3e 6c ae 2b 3c
       -0.57969314 -0.09427802 0.3876686 0.010478597
000040 65 38 cf 3d 33 11 40 be e4 56 8b 3e 62 e3 07 3e
       0.10118178 -0.18756561 0.2721473 0.13270333
000050 b0 07 c9 be fe d1 a8 bd 2f 69 d4 be 0c 9e 11 be
       -0.39263678 -0.08243178 -0.414865 -0.14220446
000060 7b 90 9e 3d f0 f3 1d 3d 95 ee 88 3e fd 8a b3 3c
       0.07742401 0.038562715 0.26744524 0.02191686
000070 c5 d5 8e 3e e4 93 45 3f 7c 08 c9 bf e3 26 bc bf
       0.27897468 0.7717879 -1.5705714 -1.4699367
000080 cb 6b 2d be 4b 9f 21 3f 04 5f f0 3f d9 d4 64 3f
       -0.16935651 0.63133687 1.8778996 0.8938728
000090 e5 d3 04 3f 7e 94 35 bf 27 e6 66 be 93 af 3e 3f
       0.51885825 -0.70929706 -0.22548734 0.74486655
0000a0 cc 30 d6 3e 4b 1e 02 3f 98 d8 16 3f 85 97 8a bf
       0.41834104 0.50827473 0.58924246 -1.082749
0000b0 6d a6 01 bf 6c 34 fc be 76 63 6c bf 24 d4 4c 3f
       -0.5064457 -0.49258745 -0.92339265 0.800112
0000c0 0e 1a 3f 3f 3a ef 98 be 13 a1 a6 3f e8 4c 2f 3f
       0.7464913 -0.29870015 1.3017906 0.68476725
0000d0 da ca 08 3f 53 68 12 bf d7 db 41 bf 54 3d ad bf
       0.53434527 -0.57190436 -0.75726074 -1.3534341
0000e0 fa c3 b7 bf a8 c3 85 3f 79 67 e1 bf 20 f3 1d bf
       -1.4356682 1.0450335 -1.7609702 -0.61699104
0000f0 7b 15 62 bd 98 7e ee 3d 05 20 f2 3e a7 89 84 bd
       -0.055196267 0.116452396 0.47290054 -0.064715676
000100 6a 9d 17 3e cd fb c7 3d 4e a0 ea bc fb 16 1d bc
       0.14806142 0.09764824 -0.028640892 -0.0095879985
000110 2e 51 cc be 77 91 40 bc 24 e3 8a a7 87 a7 82 b1
       -0.39905685 -0.0117534315 -3.854896e-15 -3.8025436e-09
000120 47 7e a8 2f fb 80 22 32 2f 58 b9 2a 6c f3 74 2c
       3.0648747e-10 9.458968e-09 3.292379e-13 3.4809612e-12
000130 45 55 7d b4 32 4b 5b a8 63 a0 1a 31 e5 cd e8 2c
       -2.3593482e-07 -1.21732475e-14 2.2501119e-09 6.6166955e-12

emb.12.weight f4 [8, 10]
000000 f5 14 45 bd f6 73 af 3e ae d0 ea bd c1 56 92 bd
       -0.04811569 0.3426816 -0.11465584 -0.07145453
000010 fc 2e 3d bd 49 0b 49 3d a2 d2 03 bd 8c df ad 3c
       -0.046187386 0.049083028 -0.032183297 0.02122476
000020 f8 78 ee 3b 57 c9 16 bc 5e 39 13 bf 68 96 d5 3e
       0.007277604 -0.009203277 -0.5750941 0.41716313
000030 37 20 b0 be 43 8e 18 bf 07 47 8c 3e a4 10 82 3e
       -0.34399578 -0.59592074 0.2739794 0.2540332
000040 46 f9 9c be b9 6b b3 3e 35 5e e2 bc ee b8 96 be
       -0.3065893 0.35043123 -0.027632812 -0.29437965
000050 5a ee 83 be 25 fd d0 3e 37 f7 0e bf 06 a4 85 be
       -0.25767785 0.40818134 -0.5584597 -0.26101702
000060 17 33 5f bb c9 03 0f 3f 0b 2f 67 bd e7 f0 75 3e
       -0.0034057552 0.5586515 -0.056441348 0.24017678
000070 c1 bc 53 3a 77 d8 30 be 19 d5 74 bf a1 7f 82 be
       0.0008077138 -0.17270075 -0.9563766 -0.25487998
000080 fc 78 80 bf 43 5d 84 be ff 3f d2 bf 69 4e 8e 3f
       -1.0036922 -0.25852403 -1.642578 1.1117679
000090 61 b2 a4 bf 2f e2 62 3f 5e cd 82 be 41 41 87 3f
       -1.2866937 0.8862638 -0.25547308 1.0566789
0000a0 87 05 b4 3e 25 74 99 be 3d f1 d7 3e ca c7 cb 3e
       0.35160467 -0.29971424 0.42176238 0.39800864
0000b0 63 63 d4 3e 88 84 00 bf 3a 6a e0 3e 80 45 8c be
       0.41482076 -0.50202227 0.43831044 -0.27396774
0000c0 ac 90 31 3f 6a 63 17 bf 79 a9 39 3f 3a 42 4d bf
       0.69361377 -0.5913607 0.7252422 -0.8017918
0000d0 09 3f 4c 3f a3 69 3d 3f 81 af 18 3f a0 08 45 bf
       0.79783684 0.73989314 0.596428 -0.76966286
0000e0 cf 42 2e 3f 66 e3 25 bf 64 91 b9 3f 0f 5f 46 bf
       0.6807069 -0.6480011 1.4497495 -0.774888
0000f0 95 91 2b be 59 36 94 3e 7b 0b 9a 3e 11 82 d3 be
       -0.16754754 0.28947714 0.30086884 -0.4131017
000100 ac 97 ab be 67 53 9b bd 3c c0 0d be 21 4d 84 be
       -0.33514154 -0.07584267 -0.13842863 -0.25840095
000110 bd 70 19 3e d3 db ae bd 42 f8 61 30 39 60 f3 2d
       0.14984412 -0.08538022 8.220732e-10 2.7668633e-11
000120 89 02 5d b5 5e 51 43 b7 93 2e 7b b1 eb a1 fc 34
       -8.2332605e-07 -1.16418505e-05 -3.6551782e-09 4.705647e-07
000130 d8 a3 d6 2e 09 66 9d b2 18 c7 ad 22 d4 fb 0e ab
       9.760698e-11 -1.8323606e-08 4.7102543e-18 -5.0798016e-13

emb.13.weight f4 [8, 10]
000000 89 3b 72 3e ff 50 b8 3d 68 d0 9b bd a9 ba ce 3a
       0.23655523 0.08999824 -0.0760811 0.0015772182
000010 94 41 41 3d 7c c1 a2 3d 31 04 30 3f 31 4f 39 bd
       0.04718168 0.079470605 0.68756396 -0.04524154
000020 d5 f8 69 bd a2 28 22 bf 78 4a 2c 3f b9 8a e1 3e
       -0.05712207 -0.6334325 0.6730113 0.4405115
000030 8a 95 39 be 68 89 68 be 19 43 ad 3e e0 89 0e 3f
       -0.18123451 -0.22708666 0.33840254 0.5567913
000040 d8 fe cc 3e 2d 72 a0 3e 6c d1 30 bf 7c 76 5d be
       0.4003818 0.3133711 -0.6906955 -0.2162723
000050 48 bd 02 3f 01 6a 1e 3f d3 9a c9 bd 46 35 f2 be
       0.5107007 0.618805 -0.098439835 -0.4730627
000060 1a 3d 2a 3f d9 c8 1d 3f d7 c5 20 3f fa 9b 98 3e
       0.66499484 0.61634594 0.6280188 0.298065
000070 8f d1 f7 be 20 33 13 bf 3e a0 99 be e5 d5 a4 3f
       -0.48402068 -0.57499886 -0.30005068 1.2877775
000080 d8 81 16 3f 9f 13 80 3f 76 9b 98 bf 02 44 57 3f
       0.58791876 1.0005988 -1.1922443 0.84088147
000090 69 62 01 be 94 df a2 3f 51 83 97 bf bb 56 ee be
       -0.12635197 1.2724481 -1.183695 -0.46550545
0000a0 61 31 1c bf 07 46 a0 be 41 b3 94 bf 0d f7 a9 be
       -0.61012846 -0.31303427 -1.1617204 -0.33196297
0000b0 26 89 59 3e 4a cf bb be 1d ab 46 bf 63 28 a5 be
       0.21243724 -0.36681587 -0.7760485 -0.32257375
0000c0 b4 68 54 3e ec 6d ec 3e 84 d6 60 bf 7f 59 88 bf
       0.20743066 0.46177614 -0.87827325 -1.0652312
0000d0 c9 45 bb bf 88 19 4f bf 52 40 25 3f 26 3b 3b bf
       -1.4630672 -0.8089833 0.6455127 -0.7313713
0000e0 49 4b 55 bf a2 a0 1d bf 36 2e 40 3f 2a b4 85 3f
       -0.83318 -0.6157323 0.7507051 1.0445607
0000f0 2f 40 95 bb fe ac f8 3c 4a b5 fb bd 74 37 a3 bc
       -0.0045547704 0.030355927 -0.122904375 -0.019923903
000100 8a 54 eb bd 7f 24 df bd f5 75 1b 3e 65 e9 5f bc
       -0.11490734 -0.10895633 0.15181716 -0.013666485
000110 a0 66 9d bc 9b 6c e2 3d f4 65 80 34 bc 2c 2b ac
       -0.019213974 0.11055871 2.3916039e-07 -2.4325394e-12
000120 32 ba 34 32 f5 67 9e a8 b3 0f 89 2b f4 6b c2 36
       1.0519715e-08 -1.7586608e-14 9.738793e-13 5.794218e-06
000130 9d a8 c8 b5 a2 da 18 a8 53 d3 a6 34 98 5b c9 33
       -1.4950234e-06 -8.485103e-15 3.1073668e-07 9.376453e-08

emb.14.weight f4 [8, 10]
000000 a5 73 2a 29 66 28 1f b0 2f 17 f3 30 3c ed ed b0
       3.784789e-14 -5.790127e-10 1.7687166e-09 -1.7311446e-09
000010 d7 d4 03 a7 82 6a 9f b4 8b a9 0e b7 3d 64 5b 29
       -1.8295283e-15 -2.9693553e-07 -8.503334e-06 4.871471e-14
000020 96 32 0d 2f 23 bd 12 30 a5 91 71 3e 9b 2a c4 be
       1.2841847e-10 5.338327e-10 0.23590715 -0.38313755
000030 e6 88 d6 bd 19 7c 59 3e 60 64 f9 bd 33 20 58 bc
       -0.1047533 0.21238746 -0.12177348 -0.013191271
000040 8e 27 9d be e0 6a d9 3e 37 a9 1e bf f1 d5 d1 bc
       -0.3069424 0.42464352 -0.6197695 -0.02561471
000050 85 a8 46 3e f1 c0 76 bc b3 82 ca bd 9f 99 ab 3e
       0.19400223 -0.015060649 -0.0988821 0.3351564
000060 37 31 c5 be 19 95 ac bd 2b 86 f8 be f5 33 81 3e
       -0.3851411 -0.084268756 -0.48539862 0.25234953
000070 6d 85 0d bf 81 9a 1c 3d 60 12 9f 3d 11 97 1e be
       -0.55281717 0.038233284 0.07767177 -0.15487315
000080 61 ee 1a be 34 af 8d 3d fb 7e 31 be d4 26 0a be
       -0.15129997 0.06918183 -0.17333595 -0.13491374
000090 f9 cc 3e be e7 5e 03 3f 4a bb 6b be fd f4 fe be
       -0.18632878 0.51316684 -0.23020664 -0.49796286
0000a0 94 1c 5c be 09 1d cd 3e 8a 00 25 3f e1 d8 60 be
       -0.21495277 0.40061215 0.6445395 -0.21957733
0000b0 eb 99 17 3e f8 c4 1f 3f b6 10 e3 3d 35 e2 49 be
       0.14804809 0.62409925 0.11087172 -0.19715197
0000c0 b4 7b f6 3d e4 fc 0f 3e 66 af f2 be aa b8 0e 3f
       0.12035313 0.14061314 -0.47399443 0.55750525
0000d0 45 e0 e2 3e f3 2c ba be da 64 0b 3f b6 09 52 3f
       0.4431173 -0.3636242 0.5445076 0.8204607
0000e0 a8 4b 5c 3e ce 72 c6 be f3 f0 d7 3e 40 30 58 3f
       0.21513236 -0.38759464 0.42176017 0.84448624
0000f0 66 6d 04 3e ac 2e 11 bd cf 8c 61 be 86 4e c4 3d
       0.12932357 -0.0354449 -0.2202637 0.0958529
000100 b3 50 18 be 03 a2 b5 bd 2d 08 86 be 7f 9a c3 3e
       -0.14874534 -0.08868792 -0.26178113 0.3820381
000110 84 38 f3 3d 02 0b 65 be 0c d6 33 2b be f0 a3 b4
       0.11876014 -0.2236748 6.3890625e-13 -3.053628e-07
000120 5f 18 0a 28 ab e6 b2 b5 ee 51 de ae 9b bc 39 b6
       7.6658235e-15 -1.3329167e-06 -1.0109945e-10 -2.767693e-06
000130 6e 43 e2 a6 8a f1 71 b2 ca 1a cb 28 7a 93 2a ac
       -1.5700177e-15 -1.4082966e-08 2.2549145e-14 -2.424032e-12

emb.15.weight f4 [8, 10]
000000 39 12 f3 30 f3 92 3b af c6 82 2b 30 45 81 43 a9
       1.7685756e-09 -1.7059758e-10 6.239528e-10 -4.341082e-14
000010 c3 86 12 ae 70 9a 62 29 bf 27 d4 31 1e 04 b5 b1
       -3.331625e-11 5.0316034e-14 6.1745307e-09 -5.2682614e-09
000020 3c 8e 0a a8 34 38 18 b1 aa 9a 55 3f fb 0b 25 bc
       -7.691381e-15 -2.215086e-09 0.83439124 -0.010073657
000030 3e 28 a0 bd 73 2a b8 3e 49 b5 3d be a8 a1 a0 be
       -0.078201756 0.35969886 -0.18526186 -0.31373334
000040 84 4f d3 be a9 08 94 be 1f 98 4e 3e 0c 43 99 3e
       -0.41271603 -0.28912857 0.20175217 0.29933965
000050 69 75 e5 3e c4 e5 e1 bc 15 14 d4 3c 60 65 01 3f
       0.4481614 -0.027575381 0.025888482 0.5054531
000060 2d 2a 03 be cf f0 0e bf 1a 93 1b be 81 2c 13 bf
       -0.12809058 -0.55836195 -0.15192834 -0.5748978
000070 14 c1 88 bd c0 33 fb 3e cb 3a f4 3c e4 bc 2d bd
       -0.06677452 0.4906292 0.02981319 -0.04241647
000080 f7 6e 9a 3d 01 8a 62 3e 8e d3 a1 be a2 1f 14 be
       0.07540696 0.22122957 -0.31606716 -0.14465192
000090 3a 11 4f be 77 c3 b6 bc 9e ee c8 3e 82 a3 39 3e
       -0.20221415 -0.022310002 0.3924455 0.1812878
0000a0 f4 bf e8 bd 30 de 76 be 1d 7a 37 bf fc c5 9a be
       -0.11364737 -0.24108195 -0.71670705 -0.30229175
0000b0 ba d7 41 3f 05 7e cd 3e 4c eb 2b 3f ab 37 a1 3e
       0.757198 0.40135208 0.6715591 0.31487784
0000c0 8f af a3 bd b6 c7 2b be bd cc 33 be 09 06 a7 3f
       -0.079924695 -0.16775402 -0.1755857 1.3048717
0000d0 1b df 42 3f 16 d7 e5 be f0 16 53 3f 40 86 24 3f
       0.7612168 -0.4489066 0.82456875 0.6426735
0000e0 ad a5 75 3e a1 03 af 3e 27 61 1d bf 10 42 35 bf
       0.23988982 0.34182456 -0.6147637 -0.7080393
0000f0 d4 7d 20 ba f4 c2 f9 bc 32 af c4 bc 8a 7f 83 3e
       -0.00061222655 -0.030488469 -0.02400932 0.25683242
000100 37 99 ef 3d 63 63 b2 bc 37 04 7e be 59 6a e7 be
       0.11699145 -0.021775907 -0.24806295 -0.45198324
000110 97 79 f4 3e f2 fc 2c 3d 54 8f b3 30 53 b1 7d b1
       0.47749016 0.042233415 1.30647e-09 -3.6917143e-09
000120 df 89 a1 27 63 16 63 b2 bd 47 00 31 6d ee cc 35
       4.4835957e-15 -1.3218229e-08 1.866723e-09 1.5268575e-06
000130 89 35 0f b4 49 36 cb 2f 76 a0 a6 aa c4 bd 72 b3
       -1.3337389e-07 3.6964057e-10 -2.9598866e-13 -5.6517607e-08

emb.16.weight f4 [8, 10]
000000 83 ff 8a 3d 91 d2 f1 3d 4e 26 5f 3c 25 4d 50 3d
       0.06787016 0.118077405 0.013619972 0.05085482
000010 2b 6d 2f bd 2c 1c d5 3c 38 c2 4a 3e e9 d8 32 3e
       -0.04282872 0.02601441 0.19800651 0.17465557
000020 fa ef cb 3d 33 b1 18 3e 2c e1 6b 3d 8f 33 00 bf
       0.09957881 0.14911346 0.057587788 -0.5007867
000030 9e 61 01 3e 8e e2 e7 bd 11 cf 9b 3e 89 ce c8 3e
       0.12634894 -0.11322509 0.30431417 0.39220074
000040 4d 1e eb 3e 98 93 6c be 5d d6 41 3e e3 d7 98 3e
       0.45921555 -0.23103178 0.1892943 0.29852208
000050 bc f0 c7 3e 4a 3b e4 be 3a 95 ae 3d 3d 77 bd be
       0.39050853 -0.44576484 0.085245565 -0.37005034
000060 df c8 29 3d 9b 6e cb 3d 52 ce 25 3f 4d 0a 2c be
       0.04145133 0.09933206 0.64767945 -0.16800804
000070 fa af 87 3e e9 f4 66 3e 41 76 4f 3e 01 60 af 3e
       0.26501447 0.22554363 0.20259954 0.34252933
000080 36 13 bf be b7 81 23 be 87 ff cf bc e8 d6 c5 3e
       -0.37319344 -0.15967451 -0.0253904 0.38640523
000090 0e 40 58 3e ed 7c 09 be 71 f4 ac bd d2 d0 d0 3d
       0.21118185 -0.13426562 -0.08445061 0.10196079
0000a0 40 a9 8c be 0b 1f 4d 3d 25 1b bc 3e 50 b7 0a 3f
       -0.27472878 0.050078433 0.3673946 0.5418596
0000b0 81 e7 a0 be 1b 77 bb be 96 df 43 be 0f 3e fb 3e
       -0.31426623 -0.36614308 -0.1912826 0.49070784
0000c0 58 13 a5 be 1c d2 b3 be 19 a7 24 bf 0f dd 9f 3d
       -0.3224132 -0.35121238 -0.6431747 0.078058355
0000d0 0f ba 27 3f 48 0d 6a 3e f4 65 26 bf 5e 84 ca be
       0.6551828 0.22856629 -0.6499932 -0.39554113
0000e0 c1 7c 34 bf 27 db 2a 3f 6e 82 22 bf a5 b3 1f bf
       -0.7050286 0.6674065 -0.6348027 -0.6238349
0000f0 0e ba db 3e 28 a0 20 be be 54 32 be e4 b1 82 bd
       0.42915386 -0.15686095 -0.17415139 -0.06381586
000100 87 85 5a 3e 18 27 86 3e 91 1b 8a be bf 9f 83 bc
       0.21339999 0.262017 -0.26974156 -0.016067384
000110 64 e8 47 3d e9 4e d1 bd 29 da c0 a7 40 b3 19 af
       0.04880561 -0.10220129 -5.3527235e-15 -1.3978951e-10
000120 77 88 fc ac db 46 dd a5 ee 3f 91 30 ad 62 77 29
       -7.1774214e-12 -3.8385402e-16 1.0568308e-09 5.4930605e-14
000130 ea 8c 08 2b 0c a6 ef ac 30 de 10 32 d7 a3 d6 ae
       4.8512464e-13 -6.8112235e-12 8.432423e-09 -9.760697e-11

emb.17.weight f4 [8, 10]
000000 09 a5 42 3e 20 6a 00 3f 7b 67 81 3c 47 78 ed 3d
       0.19008268 0.50161934 0.015796414 0.11595207
000010 03 44 68 3e 39 a0 4e be 85 db 78 be 11 a4 79 bd
       0.22682194 -0.20178308 -0.2430249 -0.06094748
000020 55 b9 5d 3e 59 21 75 be b3 c2 d6 3e 29 21 5a 3d
       0.2165273 -0.23938502 0.4194542 0.05325428
000030 43 4b 8a 3e ad 51 85 3e b0 33 8e 3e d0 c1 cd be
       0.27010545 0.26038876 0.2777381 -0.4018693
000040 03 a2 df 3e f0 19 08 3f 2d d0 bb bd 24 1b d9 be
       0.43678293 0.5316458 -0.09170566 -0.4240352
000050 b1 29 07 3f 15 0c 18 3e 76 87 e6 3d 95 3d 9a 3e
       0.5279799 0.14848359 0.11256306 0.30125108
000060 cb 07 8e 3e 81 d9 e5 be 18 e3 ab 3e e7 fe 01 3f
       0.2774032 -0.44892505 0.33571696 0.50779575
000070 50 6b 2c 3f 47 e2 c3 be 36 50 91 3e 30 c4 f4 3d
       0.67351246 -0.38258573 0.2838151 0.11951482
000080 6a 6f fd 3b 71 7b ae 3e 4c d5 12 3f 81 46 91 be
       0.007734229 0.34078553 0.57356715 -0.28374103
000090 9e 9e 90 3d 15 a8 d0 3d 80 69 e6 bc 00 ce 4a be
       0.07061504 0.10188309 -0.028126478 -0.19805145
0000a0 20 57 91 be e2 77 27 3e dd d5 62 be a1 83 93 be
       -0.28386784 0.16354325 -0.22151895 -0.28811362
0000b0 01 a2 d3 be be ea 2f 3e 91 76 12 bf e2 dc c3 bd
       -0.41334537 0.17179391 -0.5721217 -0.095636144
0000c0 8c 7e 04 3e 22 e9 96 3e 3c f5 c2 be 64 00 f8 be
       0.12938899 0.2947474 -0.38077724 -0.48437798
0000d0 b5 91 5e bf 40 01 2a 3d 25 c2 07 bf b2 8e ba 3e
       -0.8694108 0.0415051 -0.53030616 0.36436993
0000e0 45 dd 5d bf 65 4f d9 be 6c ce 3b 3e 78 d8 99 3e
       -0.86665756 -0.42443386 0.18340462 0.30047965
0000f0 3d 5c e8 3d 98 c3 4e 3e 1c 83 c3 3e ff 14 94 3e
       0.11345718 0.201918 0.38185966 0.2892227
000100 4b 46 46 3e f8 e7 33 be a5 55 fd 3d ad ab bf 3d
       0.19362752 -0.17568958 0.12369851 0.093589164
000110 78 e6 6e be 67 c5 b1 bd d9 40 9b b3 6d 40 80 aa
       -0.23330104 -0.0868023 -7.229546e-08 -2.2782072e-13
000120 cc e2 e1 35 be f6 2f ae 22 33 90 2d 08 2d 24 35
       1.6829813e-06 -4.0009544e-11 1.6393612e-11 6.116029e-07
000130 fb 98 9c b0 6e b9 bc b4 4d c9 d6 31 c2 d6 b3 b3
       -1.1393974e-09 -3.5152647e-07 6.251105e-09 -8.374401e-08

emb.18.weight f4 [8, 10]
000000 32 90 1f bd 9d 62 9c 3d dd c4 7f 3d 1f 6f 9e 3c
       -0.038955875 0.076359965 0.062443603 0.019340096
000010 dd 1d 9f 3d 71 1d 95 bd 08 ad 0f bc af 78 40 3e
       0.07769368 -0.07281006 -0.008769281 0.18796037
000020 3f 03 05 bd a0 f8 68 3c 93 bb 3e be e2 f5 a5 3d
       -0.0324738 0.014219433 -0.18626241 0.08103539
000030 8d 20 88 be 8e d3 72 3e 91 9d 08 be ec ae d0 3d
       -0.26587334 0.23713514 -0.13341357 0.10189614
000040 f9 1b 7d be 86 bd e2 bb 39 30 2d 3e 3b 78 6d 3e
       -0.24717702 -0.0069195656 0.16912927 0.23190396
000050 ac 9e 49 bd 6c 80 ab 3d b4 a9 b4 be 77 29 0c 3e
       -0.049223587 0.08374104 -0.35285723 0.13687693
000060 07 d0 28 bd 2d 46 23 3e 57 38 69 be c5 99 cb be
       -0.041214015 0.15944739 -0.22775398 -0.39765754
000070 ce 7c ef 3d 23 90 96 3e e2 66 eb be 7c 69 bf 3e
       0.116937265 0.29406843 -0.4597693 0.37385166
000080 29 36 f5 3f 88 dc 8e 3f 28 86 2b bf da ff fe 3e
       1.9157153 1.1161051 -0.6700158 0.49804574
000090 3d 37 52 be b5 dc 9d be b7 50 9f 3e 1c d5 57 3e
       -0.20528884 -0.3083245 0.31116268 0.21077389
0000a0 4d 70 91 3e 0f 16 37 bf 68 a3 12 3d c0 35 3c be
       0.2840599 -0.71518034 0.035800368 -0.18379879
0000b0 8a 00 97 3e cf c5 cc be 6d 88 9c be 14 c9 14 3f
       0.294926 -0.39994666 -0.30572835 0.5811932
0000c0 6b f5 20 bf b5 a8 04 be 1f c8 51 3f 66 0a 5c bf
       -0.6287448 -0.12954982 0.81945986 -0.85953367
0000d0 08 df 9e 3d 47 b1 93 be c8 43 c2 3e 14 61 1d bf
       0.077573836 -0.2884619 0.37942338 -0.61476254
0000e0 6d b7 32 3f 8b 24 0b 3f 02 6d 18 bf 69 c1 87 be
       0.69811136 0.54352635 -0.5954133 -0.26514748
0000f0 39 96 6b be 46 41 c1 3d 0b 25 b4 bc 62 ec d9 3e
       -0.23006524 0.09436278 -0.02199032 0.42563158
000100 c0 68 a9 bd 84 22 5a 3e a7 eb 18 be 96 d4 55 3e
       -0.082719326 0.21302229 -0.14933644 0.20881876
000110 52 57 93 bd b5 d9 8b be d1 1b 6f ab 4b 59 56 2f
       -0.071943894 -0.27314535 -8.494846e-13 1.949491e-10
000120 a8 e0 b7 b4 b5 dc 5f 30 49 f8 02 2f f9 e1 ee af
       -3.4249865e-07 8.144057e-10 1.191164e-10 -4.345251e-10
000130 db 24 ae 29 2f 95 1d a9 04 d7 60 2e 86 9e 25 34
       7.7335457e-14 -3.49904e-14 5.1122676e-11 1.5424493e-07

emb.19.weight f4 [8, 10]
000000 ae 01 78 be 6c 08 30 bd a8 97 11 3e 1a fc e6 bd
       -0.24219391 -0.04297678 0.14218009 -0.11278553
000010 12 7f 85 3e fb 31 ef be 39 00 a7 3b 1c 8d f7 3b
       0.2607351 -0.4671782 0.005096462 0.0075546633
000020 50 5f 28 3e ba 85 7e 3e 64 8c 1d 3e 6c 68 bb 3e
       0.16442609 0.248557 0.15385586 0.36603105
000030 dd a9 02 3e 51 a2 c8 be 96 da 9c 3e b9 b9 1a 3e
       0.1276011 -0.39186338 0.30635518 0.1510991
000040 95 c3 2c 3e 36 61 a9 bd 47 2e b4 be e2 71 e6 3e
       0.16871484 -0.08270495 -0.35191557 0.4500876
000050 54 79 83 3e ae e7 5f 3e 3d 3b 01 3e 3c 70 11 bf
       0.25678504 0.21865723 0.12620254 -0.5681188
000060 8d 44 88 3e b7 19 88 bc 83 c7 40 3e 23 f2 9e bd
       0.266148 -0.016613824 0.18826108 -0.07761028
000070 bd fb 44 3f fb 1f 69 3e 90 23 c2 3e 6b 9a a9 bd
       0.7694662 0.22766106 0.37917757 -0.08281406
000080 61 2c 23 be 8f 1c c1 be d0 68 04 3e ea 3e 10 3e
       -0.15934898 -0.377171 0.12930608 0.140865
000090 e3 26 15 3e 49 1c 3a be 01 cf 2c bd e5 3f 6b 3e
       0.14565615 -0.18174852 -0.0421896 0.22973593
0000a0 73 3d 12 bf d0 88 f7 be d7 d4 9a bd a6 9d b3 3e
       -0.57125014 -0.48346567 -0.07560127 0.35081214
0000b0 10 02 ab be f3 a3 94 bd 1a 2e 98 be 1d ba de 3e
       -0.3340001 -0.07257833 -0.29722673 0.43501368
0000c0 bd 9b c8 bc 81 4d 48 be 3f a3 00 bf 36 20 0e bf
       -0.024488324 -0.19560815 -0.50249094 -0.555179
0000d0 44 5e 4a bf a5 b1 ce 3e 9f b7 97 be 0a 0d 03 be
       -0.7905009 0.40369907 -0.2963228 -0.12797943
0000e0 e4 8e 05 bf 5a 1b 53 3f 7e 0d 55 bd 8c be 14 bf
       -0.5217116 0.8246361 -0.05201482 -0.5810325
0000f0 a3 7a 0f 3e 95 d1 db bc 0c 4c d3 3d 6a 1e 5b be
       0.14011626 -0.026833335 0.10317239 -0.21398321
000100 c5 dc 2c 3d 56 ff ca bd 37 bd ca 3d 43 32 93 be
       0.04220273 -0.09911983 0.09899371 -0.28749284
000110 41 51 70 3e bd c6 27 bd e0 7c 96 29 ee ac 2c ab
       0.23468496 -0.040961016 6.6830005e-14 -6.1346663e-13
000120 6f e5 a1 28 d9 8f 9c b0 ad 54 af ae 68 8d e4 27
       1.7974092e-14 -1.1391378e-09 -7.97312e-11 6.3436025e-15
000130 a5 75 96 28 b7 1c 03 b1 03 bd 01 b7 07 e7 81 2a
       1.6704366e-14 -1.9079331e-09 -7.733007e-06 2.307531e-13

emb.20.weight f4 [8, 10]
000000 7d 18 04 3d e5 ba 7d be c5 b6 b0 be 2b e8 54 be
       0.032249916 -0.24778326 -0.34514442 -0.2079169
000010 5e 70 1d 3c 19 ca d0 bd 16 f5 84 3e 34 f1 27 be
       0.00960931 -0.10194797 0.25968236 -0.16400605
000020 6d f9 d6 3d f6 c8 61 be 8c 9d 79 3e 1d 14 f5 3d
       0.10496793 -0.22049317 0.24376506 0.11966727
000030 92 2a 63 3d 76 40 e2 be 00 fa b5 3e 09 2b f3 be
       0.05546052 -0.44189805 0.35542297 -0.4749377
000040 69 49 b9 3e 63 55 6a be fb 73 8a 3e 7d 15 ad bd
       0.3618882 -0.22884135 0.2704161 -0.08451364
000050 ac 17 96 3e 35 1e 38 3e c6 91 99 bd 93 fa 35 bf
       0.29314935 0.17980273 -0.07498507 -0.7108547
000060 2f 96 a0 3d a8 28 07 bf 77 aa 54 3e f7 c6 c7 be
       0.07841145 -0.5279641 0.20768152 -0.39018986
000070 75 1b 07 3e f1 72 87 bd 4f ad 64 3e d6 35 75 3e
       0.13194068 -0.0661372 0.22331737 0.23946318
000080 85 4a 14 3d 66 9b b6 bc ed 55 6f 3e c8 a9 f4 bd
       0.03620388 -0.022290897 0.23372622 -0.11946446
000090 6b 63 8a 3e 37 a4 f2 be 13 09 1a 3e 9f d9 22 bd
       0.27028975 -0.4739091 0.15042524 -0.03975832
0000a0 b5 58 08 bf f2 3e 87 be 60 0d a9 3c a2 39 79 3e
       -0.53260356 -0.2641521 0.02063626 0.24338391
0000b0 4f 64 00 bf 7b 41 a0 3e ec 22 ea 3d 88 c4 a6 3d
       -0.5015306 0.31299958 0.11432442 0.08142954
0000c0 6d 80 dc be 24 b1 09 be 52 af 03 bf 17 2a 06 bf
       -0.4306673 -0.1344648 -0.5143939 -0.52407974
0000d0 29 b4 f3 3d 21 aa c5 3e ae f3 3c bf 44 8a 04 3f
       0.11899597 0.3860636 -0.73809326 0.51773477
0000e0 b4 87 5b be 0c a9 f8 3e 24 49 2c bf 66 6a 75 be
       -0.21438485 0.48566473 -0.67299104 -0.23966369
0000f0 6c 40 41 3d bd 11 c6 3d ee 4a 00 be 91 d9 7c be
       0.047180578 0.09671352 -0.12528583 -0.2469237
000100 4e 10 8b 3d 44 68 68 be e0 82 fa bc c3 df 9d be
       0.06790219 -0.22696024 -0.030579984 -0.3083478
000110 5a 12 8f 3e 59 f1 99 3c 78 06 f4 24 a2 21 6d 27
       0.2794369 0.018791841 1.0582909e-16 3.290859e-15
000120 f2 ff b2 26 7b 8b 34 27 3f b6 dd ad f9 be cb 2b
       1.2420605e-15 2.505563e-15 -2.5205725e-11 1.4477023e-12
000130 2c 1c 0f 2f 6a 4c 14 35 78 8c 6d af 75 60 9a 25
       1.3015783e-10 5.5245494e-07 -2.1604929e-10 2.6780103e-16

emb.21.weight f4 [8, 10]
000000 9b 89 7f bb b9 ea 71 bc c2 94 55 3d c8 ad e8 bc
       -0.0038991931 -0.014765435 0.05214382 -0.028403178
000010 1b 4b 2d 3b 33 9e f7 3c 5a 96 8c 3d f6 3c ac 3e
       0.0026442471 0.030226802 0.06864615 0.3364026
000020 1d 33 17 ba 81 7b de be 5b 42 8b be 6a 58 f9 bd
       -0.00057678093 -0.434536 -0.27199063 -0.12175067
000030 3b c8 88 be 59 2c 7d bd 66 98 11 bc f0 5a 4d 3e
       -0.26715264 -0.06180987 -0.008886432 0.20054221
000040 18 6a bd bd 38 26 a6 3e 44 a2 22 3e f6 29 df 3d
       -0.092487514 0.32451034 0.15882212 0.10896675
000050 79 da aa be 19 40 e3 bd b0 f8 0b 3d 8a 8d 5d be
       -0.33369806 -0.1109621 0.034172714 -0.21636024
000060 c3 67 00 3e 59 e7 c7 3e ca fd 88 bc 8a 35 25 3e
       0.12539582 0.39043692 -0.016722579 0.16133705
000070 0e d4 88 3e 02 a2 9b b8 9d 70 27 bf a8 68 05 bf
       0.26724285 -7.421152e-05 -0.6540621 -0.5211282
000080 c5 be 8b be 8b 49 d2 be 5b 28 d5 be 12 b5 09 3e
       -0.27293983 -0.41071734 -0.4163235 0.13447979
000090 3d 56 50 bf 94 a2 28 bf ef 83 5f 3f a9 82 af 3e
       -0.8138159 -0.65873075 0.8731069 0.34279373
0000a0 68 2d 4c 3e 54 44 ae 3e 7a 77 01 3f 7d 46 8a 3e
       0.19939196 0.34036505 0.5057293 0.27006903
0000b0 37 7b 8f 3e 21 7e b6 be 2c 3a c2 3d 9e 32 41 3e
       0.28023693 -0.35643104 0.09483752 0.18866965
0000c0 85 37 d4 be 03 52 71 be 7b db 19 3f 84 0f d6 3e
       -0.41448608 -0.23566441 0.60100526 0.41808712
0000d0 1f cd 2c 3f 70 e5 51 3f 29 51 19 3d 64 8e 06 bf
       0.6750049 0.8199072 0.037430916 -0.5256102
0000e0 3d 28 6d 3e ec 1e a1 3e 11 af 07 bf ef 3e 06 bf
       0.23159881 0.31468904 -0.53001505 -0.5243978
0000f0 4a cb 29 3e 05 82 4d be 3f c6 13 bd e8 a3 d1 bb
       0.16581455 -0.2006913 -0.036077734 -0.006397713
000100 cd 88 7c bc 7c 95 3a 3d 2f b6 99 be be fe 1e be
       -0.015413475 0.045552716 -0.30021808 -0.15526864
000110 74 eb 06 3e 71 41 67 bd 5a 19 0e b2 79 f1 27 aa
       0.13175756 -0.056458894 -8.271252e-09 -1.4916357e-13
000120 9c 81 e3 2e 1e cf f2 ab e7 49 b7 af 28 fe da 2c
       1.0345788e-10 -1.7252621e-12 -3.3340017e-10 6.2241497e-12
000130 4d 82 55 a8 69 59 4c a9 c5 cd 61 ad e4 75 30 34
       -1.185213e-14 -4.537465e-14 -1.2835459e-11 1.6434166e-07
