dnas/DARTS/acc/model.pt (torch_old, 320294 bytes, 33 tensors)

emb.0.weight f4 [8, 10]
00000000: 35ec b9ba e01e 3abb 2e00 0080 2601 0000
00000010: 1c07 4d2c 8950 6787 b200 0080 800a 28bf
00000020: 1e02 0080 103e adbc 3f99 94be 2f71 a4be
00000030: 529a b6be 289e a13f f2f1 9a3e c0c1 16bf
00000040: 10e9 05bf 36fe d6bf e068 753e 5eff b73e
00000050: a6a9 c53d 5cb4 a9bf 1f89 dabe b23a bc3f
00000060: db58 863e 1f5c 0abf a177 243e a1a0 02be
00000070: 6a65 503f 1190 883f 9173 513e 2a1c 83bf
00000080: b4fc 55bf f9a5 083f 0e62 47bf 9a71 88be
00000090: 7ddc 4e3f 586d dbbe a3de 813e eef4 213e
000000a0: 2fca 8c3e 9a92 633f 9c3c 8e3e 5496 b3be
000000b0: 97c9 513f 2d0d 0e40 786a c7bf f87f 6abf
000000c0: fa48 51bf 6981 b03f e0db ae3f a9e5 2b3f
000000d0: 3c0e fb3e 55bb 55bf 8787 8a3f bf93 f43e
000000e0: eecf 7cbf d098 993f aedf ed3f 4bb7 6c40
000000f0: 7f1c a7bf f41f 67bf 944e af3f 70e0 76be
00000100: 35e0 c3be d40c 243f 137e 5a3f 4b24 7b3f
00000110: 1727 9bbf 02cc 0440 f300 0080 a701 0000
00000120: f0f5 70be da01 0080 b800 0080 d700 0080
00000130: 542a 4eb9 eb60 873a 4a02 0080 f786 c126
-0.0014184775 -0.002839975 -6.4e-44 4.12e-43 2.9136199e-12 -1.7402176e-34 -2.5e-43 -0.6564102
-7.6e-43 -0.021147758 -0.29023167 -0.32117602 -0.35664612 1.262639 0.30262715 -0.5888939
-0.5230875 -1.6796329 0.23965788 0.35937017 0.096514985 -1.3258166 -0.4268274 1.4705412
0.26239666 -0.54046816 0.1606126 -0.12756588 0.81404746 1.0668966 0.20454241 -1.024297
-0.8358872 0.53378254 -0.77883995 -0.2664917 0.8080519 -0.4285686 0.2536517 0.1581609
0.27498004 0.8889557 0.27780616 -0.3507563 0.81948227 2.2195542 -1.5579367 -0.91601515
-0.8175198 1.3789493 1.366085 0.6714731 0.49034297 -0.8348897 1.082261 0.4776897
-0.98754776 1.199976 1.8583887 3.6986873 -1.3055571 -0.9028313 1.3695855 -0.24109054
-0.38256994 0.64082074 0.85348624 0.98102254 -1.2121304 2.0749516 -3.4e-43 5.93e-43
-0.23531318 -6.64e-43 -2.58e-43 -3.01e-43 -0.0001966146 0.0010328566 -8.21e-43 1.3428648e-15

emb.1.weight f4 [8, 10]
00000000: 9f06 0080 8fcf 5686 903c 1dab 1191 35b6
00000010: efae 8c2b f500 0080 6ba2 7c38 5700 0080
00000020: 2c03 0000 3d9f 543f 9ff3 d8bf 8cf3 0bbe
00000030: 015a 40bf db2d 4abf 8d0c 24bd ffc6 143f
00000040: 312b aa3f b46d 8cbf ebf7 913e a956 c63e
00000050: 1144 27c0 337f cdbf 1067 09bf fbee 59be
00000060: ebdb 3ebe f74b ec3e 2392 2f3f aaf5 6fbd
00000070: 6ccf 2a3f c03f 54be 73ad 543f 1158 8ebf
00000080: 223d 1abf aef9 11c0 f50d c6be 5ce4 e03e
00000090: ae13 a13f 0398 4cbe 05c2 2dbe 49f1 bd3e
000000a0: d6b0 07bf 3cda 873d cc1a d73f 1713 b13d
000000b0: 756a 003f de4d 0b3f 7bb2 a23e ba8b bd3f
000000c0: 18e1 7fbf 896a 2fbf 159a ffbe 87ea 643f
000000d0: 7d93 813f 0922 4a3f d53b ef3f dff4 a8bf
000000e0: 2c44 05bf 9342 2f3f 7723 71bf 6b99 babf
000000f0: b65d 3fbe d53a 1fbf aa3d 02be 88d3 443e
00000100: 5cb2 83bd ead6 063d 24d3 103e c6d6 693f
00000110: 67dd f83d f238 323e ea01 0080 3104 0080
00000120: 6701 0000 4bda 09a1 0dd1 ecbe 6a01 0000
00000130: d46f 308e 1800 0000 7602 0080 1a02 0080
-2.375e-42 -4.0401417e-35 -5.586165e-13 -2.7055542e-06 9.996152e-13 -3.43e-43 6.0232745e-05 -1.22e-43
1.138e-42 0.8305548 -1.6949347 -0.13667125 -0.75137335 -0.7897622 -0.04005103 0.58116144
1.3294431 -1.0970979 0.2850946 0.3873799 -2.6135294 -1.6054443 -0.53672886 -0.2128257
-0.1863858 0.46151707 0.6858236 -0.058583893 0.6672275 -0.20727444 0.8307716 -1.1120626
-0.6024953 -2.2808642 -0.38682523 0.43924224 1.2584131 -0.19979863 -0.16968544 0.37098148
-0.53004205 0.06633422 1.6805053 0.08646219 0.5016244 0.5441569 0.31776795 1.4808266
-0.9995284 -0.68521935 -0.49922243 0.8942036 1.0123135 0.78958184 1.8690134 -1.3199729
-0.5205715 0.6846096 -0.9419474 -1.457807 -0.18688092 -0.62199146 -0.12718835 0.19221318
-0.06430504 0.0329198 0.14143044 0.91343343 0.12151604 0.17404535 -6.87e-43 -1.504e-42
5.03e-43 -4.6706314e-19 -0.46253243 5.07e-43 -2.1747518e-30 3.4e-44 -8.83e-43 -7.54e-43

emb.2.weight f4 [8, 10]
00000000: 473e 213f e801 21bf 806d 253e 3db2 d9bc
00000010: 3b97 303f be14 afbe 71fa 023f fca7 d13e
00000020: e232 7c3e fee6 ed3d 2ea7 8ebe 3519 6e3d
00000030: f495 2c3c 1dc2 6abf c717 71bd b250 50bf
00000040: 7f4a 7cbe 8925 f0be e970 abbf 3315 f3be
00000050: d485 ce3e b817 b0be 2fb3 c63f 7733 ec3d
00000060: 7afc 9abf 7324 d5bd 3b78 2f3f bbc5 3ebe
00000070: ff5f 983d 57ba 87bf 8c63 abbf a8c4 b5bf
00000080: d002 013e a991 1fbe 51fd 6fbe 2063 4d3f
00000090: 5b11 c6be 9576 f73d a43e 37bf e8d6 4a3e
000000a0: b3a1 f53e e6ed 98be 64af 5fbe fe65 5b3f
000000b0: 1318 7f3f c7c7 b4bf debb 7c3f 9bfe b73d
000000c0: 6afb ae3f cb3b 073f f89d ac3f d95f a13f
000000d0: ec88 c1bf da84 a83f a195 933e 7445 d3bf
000000e0: 8538 b13f a2dd cf3f 90b5 2d3e 3a29 7d3f
000000f0: 29da 623e aa03 2f3c c322 3dbf 4edd 36bd
00000100: 51fc 68be 9531 903f 9cd3 1e3e 73e7 893e
00000110: 049b 85bd f29d d53e 3100 0080 d988 36bd
00000120: 4f06 0080 4001 0080 5c00 0000 ffba a72d
00000130: 6920 0db0 0e96 292b 578b 3c3b 534d afbe
0.6298565 -0.62893534 0.16155052 -0.026574248 0.6898076 -0.34195513 0.51163393 0.40948474
0.24628785 0.11616324 -0.27861923 0.058129508 0.0105337985 -0.91702443 -0.058860566 -0.8137313
-0.24637793 -0.46903637 -1.3393832 -0.4747711 0.40336478 -0.34393096 1.5523432 0.11533254
-1.21083 -0.10407343 0.6854283 -0.18630116 0.07440185 -1.0603741 -1.3389754 -1.420064
0.12598729 -0.15582909 -0.23436476 0.8022938 -0.38685116 0.120831646 -0.71579957 0.19808543
0.4797493 -0.29869002 -0.2184425 0.857025 0.9964611 -1.4123467 0.9872416 0.08984109
1.3670475 0.5282561 1.3485708 1.2607375 -1.511991 1.3165543 0.28825095 -1.650557
1.3845373 1.6239512 0.16963792 0.9889103 0.22153534 0.010682026 -0.7388117 -0.044644646
-0.22752501 1.1265131 0.1551041 0.26934394 -0.065237075 0.41722065 -6.9e-44 -0.0445641
-2.263e-42 -4.48e-43 1.29e-43 1.9068745e-11 -5.134156e-10 6.0249104e-13 0.0028769576 -0.3423868

emb.3.weight f4 [8, 10]
00000000: 56a1 80bf 31e7 c7bf 2533 69bd 249f 0abf
00000010: cc01 993f fb40 653d 3e6b 153f 1d80 87be
00000020: 2f09 e4bd 1d91 053f af07 633f 14b5 a9be
00000030: 68c0 3bbf 374b 843e 9ae7 d03f 2d12 c33e
00000040: 7460 6fbd f10e 43bf 8dd9 edbe 3372 dfbe
00000050: f574 323f 0929 75bf ec7b 98be ef4b 993d
00000060: 3dce 1e3e 9ab8 833f e21e 103f 3adc 17bf
00000070: 3bcd d1be e52c 98bf 4c65 cc3f 2db1 ee3f
00000080: b398 03bf c0ac 3f3f 2be3 413f e328 e63e
00000090: ab25 e2bf f606 2f3d b650 1ebf 4a84 65bf
000000a0: 69dc 9dbe 25e7 443f 0732 0f3f 471b eabe
000000b0: df5b 95bf 4572 e5be eaba 273f ec38 0cbf
000000c0: 279d 1a3f e467 543f 80c8 59bf f59d e8be
000000d0: 1e0c 2d3f f1d4 b9bf 1d64 27bf 6a24 67bf
000000e0: 0cdf 40bf b550 a73f 2243 983e 3621 d23f
000000f0: 35d5 a53f 6ad4 e4be 8ca5 e33e e3bb e4bd
00000100: 141a 83be 2c2f 833d f14d a6be 5182 b33e
00000110: e4bc e0bd ff94 6fbf 2603 0000 e9e3 a4b7
00000120: 40dd f6bb 0a01 0080 6b98 54bc 6035 81bd
00000130: 5a0c 2f3e c603 0000 0e01 0000 4901 0080
-1.0049236 -1.5617429 -0.05693354 -0.5414908 1.1953673 0.055970173 0.58366764 -0.2646493
-0.11134564 0.5217455 0.886836 -0.33145964 -0.73340464 0.25838634 1.6320679 0.38099805
-0.058441594 -0.76194674 -0.4645504 -0.43641815 0.6970971 -0.9576574 -0.29782045 0.07485186
0.15508361 1.0290711 0.56297123 -0.59320414 -0.4097689 -1.1888701 1.5968413 1.864782
-0.51404876 0.7487297 0.75737256 0.4495307 -1.7667745 0.042731248 -0.61841905 -0.8965498
-0.30832222 0.769152 0.5593571 -0.45723936 -1.1668662 -0.44813743 0.65519583 -0.54774356
0.60396045 0.82971025 -0.85071564 -0.45433012 0.67596614 -1.451811 -0.65387136 -0.9028994
-0.7534034 1.3071505 0.29738718 1.6416385 1.2955691 -0.4469331 0.4446224 -0.11168649
-0.25605834 0.06405482 -0.3248134 0.3506036 -0.10973528 -0.93586725 1.13e-42 -1.9656452e-05
-0.0075336993 -3.73e-43 -0.012975792 -0.063090086 0.17094555 1.354e-42 3.78e-43 -4.61e-43

emb.4.weight f4 [8, 10]
00000000: 5bd8 08be 4be1 a73c 9137 413e eba1 5f3f
00000010: de80 bc3f 9911 373f ec80 4b3f cc09 a7be
00000020: 7d74 5cbf 1555 823f b323 183f 5284 e7bb
00000030: 0319 c1be 7e1a d6bf f115 c33f 3fbf b6bf
00000040: cc6d 533f f884 6340 cfa7 9a3e 8f6f 243f
00000050: 6c31 053f 278f 11bf d255 59bf 04bf b03f
00000060: 5d8b de3f 6c7d 9fbf 1709 ccbf bbc1 b1bf
00000070: acb0 5e3f 8525 65be 3fe9 f03f 17e4 8cbf
00000080: 9ac3 23bd e288 d43f 31f9 993f b634 1b3f
00000090: 133d 003f 5ab9 e13f 33eb 483f 031d aa3f
000000a0: f8e8 383e dac0 ec3e 3616 513f 013a 82bf
000000b0: 7ea4 80bf 65b4 193e d7d6 1dbf 9607 28bd
000000c0: 59cf aebd 8fb6 913e 2603 b0be 6c98 c03f
000000d0: 2d3e 593f 0628 71bf 961f 14bf d95a 8b3f
000000e0: 185c 48bf c4fe 7bbf b363 76bf 38de c9bf
000000f0: 8f98 113d f090 503e f18f 74be 523c 8d3c
00000100: 1e67 d53e f169 df3e 19ff 8a3f 5f97 5f3f
00000110: 130a 053f f848 80bf 4e01 0080 88a7 cd19
00000120: 2b9b dd3d 7d23 2540 4447 953a 0969 40be
00000130: 8c50 b88b 7001 0000 738c 723c 7e01 0000
-0.13363783 0.02049317 0.18868853 0.8735644 1.4726827 0.71511227 0.79493594 -0.32624662
-0.86115247 1.0182215 0.5942947 -0.0070653344 -0.37714395 -1.6726835 1.5241071 -1.4277114
0.8258941 3.5549908 0.30206153 0.64232725 0.52028537 -0.5685906 -0.84896576 1.3808293
1.738628 -1.2460151 -1.5940274 -1.3887247 0.8698833 -0.22377594 1.8821181 -1.1007107
-0.039981462 1.6604273 1.2029172 0.60627306 0.5009319 1.763469 0.78483886 1.3290104
0.1805762 0.46240884 0.81674516 -1.0173951 -1.0050199 0.15010221 -0.61655945 -0.04102286
-0.08535642 0.28459594 -0.34377402 1.5046515 0.848605 -0.94201696 -0.57860696 1.08871
-0.78265524 -0.98435616 -0.9624588 -1.5770941 0.03554588 0.2036779 -0.23883034 0.017240677
0.41680235 0.43635514 1.08591 0.8734035 0.519685 -1.0022268 -4.68e-43 2.1264169e-23
0.108206116 2.580291 0.0011389037 -0.18790068 -7.0995415e-32 5.16e-43 0.0148039935 5.35e-43

emb.5.weight f4 [8, 10]
00000000: 589d 0cbf 87e5 a53e 17a2 6c3d 5c7f dfbf
00000010: b6e0 953f 4c26 cdbe c770 af3f b0ac 11bf
00000020: d60f ad3f 3d53 74bf ea77 2c3e 5a7b 913f
00000030: 2101 60bf 1a2b a63e d156 0440 2201 be3f
00000040: 7152 aa3e d27d 863f 8135 8ebf c4b3 843f
00000050: 462a 36bf d770 debe 8267 2b3e 898d 13be
00000060: 2739 b3be 3c22 e63e a399 643f d6f1 d53f
00000070: 256a 1a3f f56d 6dbf 94ee 4a3e 9cce c9bf
00000080: fa36 b03f 00d3 b63f 0487 cf3d 38e8 353f
00000090: 753d ba3f 287f 4d3f 9c6d 5fbf 5f45 2ebf
000000a0: b785 603f 24a5 ac3e b891 493f 53fb 9fbf
000000b0: 6e6c d2be a3ee 73bf 5da4 553f c6a1 56bf
000000c0: 2196 02bf 9b80 1c3f fbbd f43f ac05 18bf
000000d0: d2f5 5340 7eb9 6fbf 706b 58bf 98da bd3f
000000e0: 520b 25bf 64a1 3bbf d15f c83f 29a4 c33f
000000f0: 4bea 2c3e 87db 993f f82a 87be 6df1 813f
00000100: 95c5 863e 7d94 9bbf acf5 fabe e507 c53e
00000110: 72fd dc3e 76d5 92bd b502 0080 1401 0080
00000120: eaeb c0bd 1d01 0080 b6e5 55bb 3702 0080
00000130: 4702 0080 7ac6 4eb2 cb26 3b3e c311 d3bf
-0.5492759 0.32401678 0.05777177 -1.7460742 1.1709201 -0.4006828 1.3706292 -0.56904125
1.3520458 -0.9543951 0.16842619 1.1365769 -0.8750172 0.3245476 2.0677989 1.4844096
0.33266023 1.0507147 -1.1110078 1.036736 -0.71158254 -0.43445465 0.16738704 -0.1440946
-0.3500454 0.44947994 0.8929693 1.6714427 0.60318214 -0.92745906 0.19817573 -1.5766177
1.3766778 1.4283142 0.10133174 0.7105746 1.4550005 0.8027215 -0.87276626 -0.680746
0.8770403 0.33719742 0.78737974 -1.2498573 -0.4109835 -0.95286006 0.83453923 -0.83840597
-0.5101033 0.61133736 1.9120477 -0.59383655 3.3118787 -0.93642414 -0.84538937 1.4832335
-0.644704 -0.7329314 1.5654241 1.5284473 0.1688625 1.202012 -0.2639997 1.0151802
0.26322618 -1.215469 -0.49015558 0.38482586 0.43162113 -0.07169621 -9.71e-43 -3.87e-43
-0.09419997 -4e-43 -0.003263814 -7.95e-43 -8.17e-43 -1.20359065e-08 0.18276517 -1.6489795

emb.6.weight f4 [8, 10]
00000000: 0c72 5dbe ec33 49be 9952 55be ba63 9bbf
00000010: a2ba bc39 6a8d 703f 4dd3 9d3f 15ce 9abf
00000020: 4e98 eabd c86d 0a3f fcaa e63e 40d1 25bf
00000030: 23df 89bf 7fc8 b63f e4fb 59bf 9602 2d3f
00000040: cc64 cf3c c0f8 6dbe 1db0 75bf 8e8a 3cbf
00000050: 8130 273e 4c95 41bf fb4b 83bf 909a 223f
00000060: 8c50 c7be f776 473f b1bb e2bf bb4c f8bf
00000070: 97c6 5f3d 2ecd adbf bfcc a83f 9478 8bbf
00000080: 1622 5abf f308 eabd 96f4 66bf 9d59 973f
00000090: a564 95be c492 fdbe b807 863f a4aa 25bf
000000a0: 4a6b 5bbf 18f6 463f d99e 0abf 12f1 133f
000000b0: d01d 6a3f dd80 3c3f ce01 793d f9b1 873f
000000c0: 1189 3bbf 8bd2 293f 9de1 d9bf ed32 23c0
000000d0: ab4d 063f c0d8 37bf 77be 9d3e 447d 09bf
000000e0: 3960 9b3f e025 883f d536 5540 41e0 c2bf
000000f0: 7a2d a83e 1e08 55be cb48 543e 4823 583f
00000100: 662c 543f f110 363f 0d63 bdbe ae33 69bf
00000110: a93e 0fbf 5903 d7bf 3703 0000 4903 0000
00000120: da03 0000 75e8 0f3f 4c01 0080 9502 0080
00000130: 9d00 0080 2505 073f 2e00 0080 f402 0080
-0.21625537 -0.19648713 -0.2083229 -1.2139809 0.00035997207 0.9396578 1.2330109 -1.2094141
-0.11454831 0.5407376 0.45052326 -0.64772415 -1.0771221 1.4279937 -0.8514998 0.6758207
0.025316618 -0.23239422 -0.9597185 -0.7364892 0.16327097 -0.75618434 -1.0257562 0.63517094
-0.3892864 0.779159 -1.7713529 -1.9398416 0.05463275 -1.3578241 1.3187484 -1.0896173
-0.8520826 -0.11427488 -0.9021696 1.1824223 -0.29178348 -0.49526036 1.0471106 -0.647135
-0.85710585 0.7771926 -0.5414863 0.5778972 0.9145174 0.7363413 0.060792737 1.0601188
-0.7325602 0.6633689 -1.7021977 -2.5499833 0.5246226 -0.7181511 0.30809376 -0.53706765
1.213874 1.0636559 3.3314717 -1.5224687 0.32847196 -0.20803878 0.20730893 0.84428835
0.82880247 0.711196 -0.36989632 -0.9109448 -0.55954987 -1.6797897 1.153e-42 1.178e-42
1.382e-42 0.56214076 -4.65e-43 -9.26e-43 -2.2e-43 0.52742225 -6.4e-44 -1.06e-42

emb.7.weight f4 [8, 10]
00000000: 1d32 f43c 8e6b b73a bd28 283f 2433 8b3e
00000010: 170b 69bd c603 6b3f 26e2 28bf 91da 123f
00000020: 7f74 81bd e42e cdbe 7930 00bf 2b89 b7bf
00000030: 9970 e53e 10a6 cf3f 579a 953e 9272 02bf
00000040: 8462 ecbe 00a1 5bbe d001 84bf 72dd 11bf
00000050: 4d31 653e b7d0 a5bd 784f 203c b3fd 363f
00000060: 09e5 c93e eb42 26bd 7df3 d2be 679b 1bc0
00000070: beda 2cbf 2593 de3d ddc1 b1be 6f81 50bd
00000080: d52b 033f 7a4f 97bf 6425 5e3f 9877 5d3f
00000090: 3973 c33e c865 39bf b550 69be 08d0 653e
000000a0: 139d d03e b000 0d40 5c4d 623f 4e74 313d
000000b0: 5031 aebd 0392 1a40 d2c3 1ac0 89df 0e40
000000c0: d573 7d3e 0190 82bf c1dc ca3f fc1d fd3e
000000d0: 2e1a 4bbf 4c35 993f 8636 b2bf f8c9 2e40
000000e0: 5e82 c2bf 527c e03e e9f9 b53e 4451 6ebf
000000f0: 2d67 c63f 5cdb 37be adc2 2cbf a4fc 723d
00000100: e3c3 38be eeed 06bf cf79 16bf f6f2 26bf
00000110: cef5 11be 0b55 603f 0d88 163d 4c01 0080
00000120: 039a 01a4 7102 0000 f521 36bf 4bd2 1314
00000130: 4f01 0000 ab02 0000 e16e de3c ddb8 8abd
0.029809052 0.0013993846 0.6568716 0.27187455 -0.05689534 0.9180263 -0.65970075 0.57364756
-0.06321048 -0.40074837 -0.50073963 -1.4338735 0.44812468 1.6222553 0.29219314 -0.5095607
-0.4616891 -0.21448135 -1.0313053 -0.56978524 0.22382088 -0.0809645 0.009784572 0.71480864
0.39432552 -0.04059116 -0.41201392 -2.43136 -0.67521274 0.10867909 -0.34718218 -0.050904687
0.5123876 -1.1821129 0.86775804 0.8651061 0.38173845 -0.7242093 -0.22784694 0.22442639
0.40744838 2.203167 0.8839929 0.043323807 -0.08505499 2.4151618 -2.418202 2.2323935
0.24751218 -1.0200197 1.5848619 0.4943694 -0.7933682 1.196939 -1.3922889 2.7310772
-1.5196035 0.4384485 0.3554223 -0.9309275 1.5500237 -0.17954773 -0.6748455 0.059322968
-0.18043475 -0.527068 -0.58779615 -0.6521448 -0.14253923 0.87629765 0.036750842 -4.65e-43
-2.810287e-17 8.76e-43 -0.71145564 7.463076e-27 4.7e-43 9.57e-43 0.02715248 -0.06773541

emb.8.weight f4 [8, 10]
00000000: 7d15 df3e c039 2ebf 8f3e f43d 264e f9bd
00000010: 6e2e 8f3e c48e a03f 6c0c e63e 6a5e 9cbe
00000020: 6d25 5c3e 2896 323f afb9 3ebf 34a0 a23f
00000030: ab23 1f3e 7c53 0340 3f4c debd 044c 0840
00000040: 46d6 54bf eebf e43f 0e7a 61bf 6e6f 9f3f
00000050: 846e 2b3b f323 883f 5511 e93f 0cb7 e93d
00000060: a435 48bf c460 3dbb 47da 26bc a145 9bbf
00000070: 18c3 463e b978 50bd 62d5 0e3f 9bd8 093f
00000080: d49c 873f 26f2 633f f0a9 bbbf b3b8 afbf
00000090: 4bcd 8abe 4523 6f3d f445 cfbf fdf6 793f
000000a0: 21e1 64bf 626e e93e d9f3 6ebe 839d a9be
000000b0: 920e 6abe a9fa 97bf d7a9 9b3f e850 6e3f
000000c0: 600b a93f 08fd 933e 8626 c1bf 057d 78bf
000000d0: 2e83 2fbf d87f b7bf c9e0 b73f 5df7 23bf
000000e0: 5652 b6bf fdff af3f 41f8 26be 2c33 42bf
000000f0: f9c5 b83f 13d7 dbbf f660 9f3e 0ca9 b3bd
00000100: b804 bf3e c2c6 6b3f 2b2b 833f 7c8c 9ebf
00000110: b839 19bf de53 4ebf 8b01 0000 ddaf d70b
00000120: 1400 0080 2703 0000 ed01 0000 b0ff 613e
00000130: 2e02 0080 60d5 9abd a067 82b1 1d02 0000
0.43571082 -0.6805687 0.119259946 -0.12173109 0.2796511 1.2543569 0.44931352 -0.30540782
0.21498652 0.6976037 -0.7450208 1.270514 0.1554095 2.0519705 -0.108543865 2.1296396
-0.83139455 1.7871072 -0.88076866 1.2455881 0.0026158402 1.0635971 1.8208414 0.114118665
-0.7820685 -0.0028896788 -0.010183877 -1.2130624 0.1941036 -0.05089638 0.55794346 0.5384614
1.0594735 0.89041364 -1.4661236 -1.3728241 -0.2710975 0.058383245 -1.6193223 0.976425
-0.8940602 0.45592028 -0.23335208 -0.33127984 -0.2285712 -1.187337 1.2161206 0.93092203
1.3206596 0.28903985 -1.5089881 -0.97065765 -0.6855954 -1.433589 1.4365474 -0.6404932
-1.4243877 1.3749996 -0.16305639 -0.7585933 1.4435416 -1.717501 0.31128663 -0.087724775
0.37308288 0.92100155 1.0247549 -1.2386622 -0.59853697 -0.8059672 5.54e-43 8.30796e-32
-2.8e-44 1.131e-42 6.91e-43 0.22070193 -7.82e-43 -0.07560229 -3.7952788e-09 7.58e-43

emb.9.weight f4 [8, 10]
00000000: ed6a d33e efde 083d 9b46 22bf aff6 243e
00000010: bb66 51be 7ed7 96bf df72 933f 7f16 6c3e
00000020: 7a1b d7bf e91f 893e c2f8 263e d9c6 72bd
00000030: a25f 773d cb87 13bf 012f f03f f893 a3be
00000040: 3578 bcbe 6219 233f 1022 673e 1003 a93e
00000050: 2102 22bf 66ed 65be fa94 833f 4186 80bf
00000060: f7fc e9be 7939 dcbe a460 a6bf 2479 413f
00000070: 790b 8abe c10e 873f e7fa 163f d288 b63e
00000080: 43b7 e4bf 83a4 9e3d 6250 a43f d689 4e3f
00000090: f2a5 2bbf 64e3 9f3f 5eaf 51bf fbc4 493f
000000a0: 5379 e2be 0531 03c0 0cdc 2d3f 2367 ca3d
000000b0: dcde 6dbf 4821 bf3f 48b6 343f e518 09bf
000000c0: a32f 373f 6556 3bbe f8bc ed3f babc e9be
000000d0: a5fe f53f f710 8b3f 4465 fcbf 896d e4bb
000000e0: a493 163f b9a7 42bd 7bb3 203f b8c3 1ebf
000000f0: af9b fe3e 53e0 9fbf 4795 cbbe f694 c0bc
00000100: c2d9 e73e 36e3 c2be 37b7 73be 9769 9ebd
00000110: dce2 ca3e 29ac e43e 17e6 1ab8 2b36 91bc
00000120: 5c01 0080 da00 0080 4236 c42c 8804 0000
00000130: 0611 4d3a 8ef5 0c3a 9d01 0080 b4a0 d221
0.41292515 0.03341573 -0.63388985 0.16109727 -0.20449345 -1.1784513 1.1519431 0.23055457
-1.680526 0.26782158 0.16305831 -0.059271667 0.060393937 -0.5762908 1.8764344 -0.3194883
-0.3681046 0.63710606 0.22571588 0.3301015 -0.632845 -0.22453842 1.0279839 -1.0040971
-0.4570081 -0.43012598 -1.2998242 0.7557547 -0.26961878 1.0551378 0.58976597 0.3565126
-1.7868427 0.07746222 1.2837031 0.8067907 -0.6705009 1.2491269 -0.81908214 0.78816193
-0.44233188 -2.049867 0.6791389 0.09882953 -0.9291818 1.4932032 0.7059064 -0.5355361
0.7155706 -0.18294676 1.8573294 -0.456518 1.9218336 1.0864552 -1.9718404 -0.0069710654
0.5881903 -0.047523234 0.62773865 -0.62017393 0.49728152 -1.2490333 -0.39762327 -0.02350853
0.45283324 -0.38063973 -0.2380036 -0.077349834 0.39626205 0.44662598 -3.693075e-05 -0.017726025
-4.88e-43 -3.05e-43 5.576679e-12 1.626e-42 0.0007822666 0.00053771667 -5.79e-43 1.4272691e-18

emb.10.weight f4 [8, 10]
00000000: 5680 74bf 93ee 00bf ba24 9abd 8ef5 00be
00000010: 6663 01bf a8f0 8b3f 7908 20c0 2272 1abe
00000020: 4c12 2bbf ec16 29be f902 b53f e14c ca3d
00000030: b805 4dbf 2489 e03f f1b2 83bf 0018 0cbf
00000040: 99ed 29bf 7428 e1bf 4f90 87bf fe06 3cbf
00000050: 0653 1ac0 e928 94bf 6e57 c23c 20ce 07be
00000060: e8c8 323f 6d02 693f 3e34 f63d 7121 403f
00000070: 5a94 05c0 5350 11bf 764f ecbf cb23 f3bd
00000080: a250 a3bf b510 5f3f 3004 653e 34fc 54bf
00000090: 2c84 91bd 82fa 86bf 29a5 dcbe 4f3a 2c3e
000000a0: 6294 733f ad0f debd 1c68 cd3e 13cc c8bf
000000b0: 0e52 babf d973 183f 4f30 00bf 8ef0 babe
000000c0: 2831 08bf 3c2b b93e f4b2 833f 7fb7 0340
000000d0: 9f51 463f 3ad7 cabd af03 d4bf 7647 20bd
000000e0: e7e8 3f3e 89af c93f e87e 94be 6bf7 6d3f
000000f0: 2dae 0abf 0bac 013d aa84 0dbf 9a7d abbc
00000100: f925 1d40 2ca7 07bf dfaf 50bf 8435 05bf
00000110: deec 173f 530e 873f 1d00 0080 5bdb 02b7
00000120: 86ca 88ad ed06 0000 d603 0080 4f02 0080
00000130: d86d 1691 5c03 0080 6471 733c b701 0080
-0.95508325 -0.50364035 -0.07526536 -0.12593672 -0.50542295 1.0932817 -2.5005171 -0.150826
-0.66824794 -0.1651265 1.4141532 0.09877945 -0.8008685 1.7541852 -1.0288984 -0.5472412
-0.6637817 -1.759047 -1.0590914 -0.7344817 -2.4113173 -1.1574985 0.02372333 -0.13262224
0.6983781 0.91019326 0.12021683 0.7505103 -2.0871797 -0.5676319 -1.846175 -0.11872061
-1.2758982 0.8713487 0.22364879 -0.8319733 -0.07105288 -1.0545199 -0.43094757 0.16819118
0.9514829 -0.10842834 0.40118492 -1.5687279 -1.4556291 0.5955177 -0.50073713 -0.36511654
-0.53200006 0.36165798 1.0288987 2.0580747 0.77468294 -0.099043325 -1.6563624 -0.03913065
0.18741189 1.5756694 -0.29003072 0.92955655 -0.5417202 0.031658214 -0.55280554 -0.020933915
2.4554427 -0.5298946 -0.8151836 -0.52034783 0.59345806 1.0551246 -4e-44 -7.7996765e-06
-1.5551348e-11 2.485e-42 -1.376e-42 -8.28e-43 -1.1866762e-28 -1.205e-42 0.014858577 -6.15e-43

emb.11.weight f4 [8, 10]
00000000: 8e3a 11bf 2e41 ec3d e0e8 0f3c 8c96 0040
00000010: b145 45bf 5168 373f a49e ccbd f609 c7bd
00000020: d2de dfbd eba4 afbc cd47 633e b861 5ebf
00000030: 7807 8ebf 256e 54bf 21e2 c03f 8190 10be
00000040: 9963 8e3e 1f01 70bf c0ca 783f 4fe8 91be
00000050: ae0c eebf 61be b63c 0483 3ebe a3d8 e0be
00000060: 4c75 fc3c d60e 183f 8366 5d3f 9dac 3c3f
00000070: acd7 433f 3156 2840 3009 0dc0 6d00 d2bf
00000080: 8d68 b5be 850b 843f 482a 0940 d68e 383f
00000090: 0aba c13e 729a 3c3d 9633 20be caf8 863f
000000a0: 2ae5 0bbf a97c 053f b926 6a3f 3425 a4bf
000000b0: fc0a 42bf 34e2 d1be 931e bbbf c0c0 913f
000000c0: c7d1 bc3e 52a4 113f ea33 0840 cded 223f
000000d0: 3606 dd3e 7a6a ac3e 30d0 87bf c855 d7bf
000000e0: ad4b e8bf b3c9 853f d740 1ec0 fcc1 bebe
000000f0: 72bd 7abe ffbf 973f bac8 c83f 5fe4 0bbf
00000100: aba3 2d3f 1842 463f e8a4 1f3e 7b79 ffbd
00000110: 99cf 7abf 656c 423e d102 0080 156b 69ab
00000120: f400 0080 d501 0000 8803 0000 c601 0000
00000130: 9f01 0080 47c7 4128 b200 0000 9901 0080
-0.5672997 0.115358695 0.008783549 2.0091887 -0.77059466 0.7164355 -0.09991196 -0.09718697
-0.109311715 -0.021440944 0.22195359 -0.86867857 -1.1096029 -0.8298057 1.5069009 -0.14117624
0.27810362 -0.9375171 0.9718437 -0.2849755 -1.859762 0.022307577 -0.18604666 -0.4391528
0.03081765 0.5939764 0.86484545 0.73700887 0.76500964 2.6302607 -2.2036858 -1.640638
-0.35431328 1.0316015 2.1432056 0.7209295 0.3783725 0.046045728 -0.15644678 1.0544674
-0.5464655 0.5214334 0.91465336 -1.2823853 -0.7579801 -0.40992892 -1.4618706 1.1386948
0.36878797 0.5689136 2.1281686 0.63644105 0.431688 0.33674985 -1.0610409 -1.6823053
-1.8148094 1.0452179 -2.4727075 -0.37257373 -0.2448633 1.1855468 1.5686257 -0.5464534
0.6782786 0.774446 0.1559025 -0.124743424 -0.9797302 0.18986662 -1.01e-42 -8.2926835e-13
-3.42e-43 6.57e-43 1.267e-42 6.36e-43 -5.82e-43 1.07568636e-14 2.5e-43 -5.73e-43

emb.12.weight f4 [8, 10]
00000000: d05e 74be 390c 293f 98f2 85bf bec5 01be
00000010: 4acb b63c ad51 a93e da0b 3a3e 6f27 cabe
00000020: 82b6 55be 252f 4abf 3053 eabf 7ab7 863e
00000030: c9b9 9cbe 1d91 9abf 63f8 ad3f bd54 363e
00000040: 15ec b5bf c6c6 8c3f 056d 87be 223c 83bf
00000050: 76bd 26bf d6df 903e cf89 a7bf 3f89 013e
00000060: c5c0 5ebf 008d ed3f 84f7 86be 16b0 1d3f
00000070: bdcd a53e 7e77 1d3e 4c0a 31bf 9db0 17bc
00000080: 1469 afbf 9870 fa3d c104 f1bf 224f 993f
00000090: b14e 98bf 9cf7 143f 7110 023e 8053 403f
000000a0: c906 dd3e a43c 883e 827a 533e 0da2 263f
000000b0: a7ea 4b3f 1f53 50bf 815a 6a3f 125e d43e
000000c0: 123a 583f 545e 6abf a3eb 513f fead 99bf
000000d0: 4f4a 5f3f aba3 453f ea67 4f3f 782c 55bf
000000e0: f004 a63e b947 fabe 30f6 ca3f ec89 b4bf
000000f0: 444b 99bf 7781 ef3e 31d5 573f d6e2 a9bf
00000100: df8e 4fbf e2c2 fcbd 29d9 edbe 35dc 85bf
00000110: 3d71 093f ac1b 8cbf ef67 cf3e 2201 0000
00000120: 7102 0000 3d01 0080 d003 0080 81e6 a7ab
00000130: 2501 0000 9b04 223d 565d 7139 cf6e 3bbc
-0.23864293 0.66034275 -1.0464659 -0.12673089 0.022313733 0.33070126 0.18168584 -0.3948321
-0.20870402 -0.78978187 -1.8306637 0.26311857 -0.30610493 -1.2075535 1.3591427 0.17805763
-1.4212672 1.0998161 -0.26450363 -1.0252726 -0.65132844 0.28295773 -1.3088931 0.12650011
-0.8701289 1.8558655 -0.26360714 0.6159681 0.32383528 0.15377614 -0.69156337 -0.0092584165
-1.3703942 0.12228507 -1.8829576 1.1977274 -1.1899015 0.5819032 0.12701584 0.7512741
0.4316924 0.26608765 0.20652202 0.6509102 0.79654926 -0.8137683 0.9154435 0.4147802
0.8446361 -0.91550183 0.8200018 -1.2006223 0.8722276 0.7720286 0.81017935 -0.8327098
0.32425642 -0.48882845 1.585638 -1.410459 -1.1976094 0.4677846 0.8430968 -1.327235
-0.8107738 -0.123418584 -0.46454743 -1.0457827 0.5368841 -1.0945945 0.40508983 4.06e-43
8.76e-43 -4.44e-43 -1.368e-42 -1.1930041e-12 4.1e-43 0.039555173 0.00023018321 -0.011439993

emb.13.weight f4 [8, 10]
00000000: 9e41 ec3e fbb1 1d3f 6402 24bf 2c13 ddbd
00000010: 4754 033f 5349 123f 8b71 c13f 0d55 92bf
00000020: e017 923d 25e4 efbf ad1d 543f 4ff2 6c3f
00000030: 1cad 54bf dba5 c9be e572 023e f240 3b3f
00000040: 6bc1 3ebd 847d 623f ffbe fbbf 8c46 963e
00000050: e0cb 493e 0f69 c33f d4c9 17bf 4174 07c0
00000060: 8b2c d73f 9e37 b63f 5983 633f be87 f63e
00000070: 136d 5abf 5d91 c1bf 54f8 b9be a50d 953f
00000080: 55d0 88bd 2819 463f b815 bbbf ef4f f33e
00000090: 3eec a13e c73f 763f ac08 61bf 5011 afbf
000000a0: 65ff b5bf 6005 673d 1699 19c0 f236 6ebe
000000b0: 31ce 123e 4bde 5abf 6cbe f4bf c619 72bd
000000c0: a001 02bf d660 373f e020 a5bf f70e f1bf
000000d0: 3c7b a0bf 7652 c2bf bfff 843f 98d4 17be
000000e0: 7aa5 2ebf e9d9 0fbf 3df6 353f df75 893f
000000f0: 33c8 253e 0299 3e3f 6d6a e4be 3613 08bf
00000100: f233 fabd 0f4e 1bbf d702 b63e c2c6 5b3e
00000110: ac27 70bf 051c 133f 7aaf b116 8e00 0000
00000120: fb01 0080 4107 aabd ac02 0080 4106 0000
00000130: 3a00 0080 cfd3 4a32 9902 0080 4c01 0000
0.46143812 0.615997 -0.6406615 -0.10794672 0.5130047 0.57143134 1.5112776 -1.1432205
0.0713346 -1.8741499 0.8285778 0.92557234 -0.83076644 -0.3938435 0.12739141 0.73145974
-0.046571176 0.8847277 -1.9667662 0.29350698 0.19706678 1.5266436 -0.5929234 -2.1164706
1.6810468 1.4235723 0.88872296 0.48150438 -0.85322684 -1.5122486 -0.36322272 1.1644789
-0.06680361 0.77382135 -1.4616003 0.47521922 0.3162555 0.96191067 -0.8790386 -1.3677158
-1.4218565 0.05640161 -2.3999686 -0.23263147 0.14336468 -0.8549544 -1.9120612 -0.05910661
-0.5078373 0.71632135 -1.2900658 -1.8832692 -1.2537608 -1.5181415 1.0390548 -0.14827192
-0.6822125 -0.5619188 0.71078855 1.0739096 0.16189651 0.7445222 -0.44612446 -0.53154314
-0.12216939 -0.6066598 0.35549042 0.21462539 -0.93810534 0.5746463 2.8706634e-25 1.99e-43
-7.1e-43 -0.08302165 -9.58e-43 2.243e-42 -8.1e-44 1.1806107e-08 -9.32e-43 4.65e-43

emb.14.weight f4 [8, 10]
00000000: 0b02 0000 2f03 0080 3901 0080 3402 0000
00000010: e904 0080 ca09 b237 ea00 0080 ab07 0000
00000020: 1e74 45b6 3b00 0000 c7fd ea3e dd83 86bf
00000030: 27dc 12be 9cb5 2ebd 32f1 383e 2b30 953e
00000040: 0df8 e5bd 781f 843f 3a58 aabf e552 95bd
00000050: 9ef7 1f3e 506a 763f 2803 d43d a878 353f
00000060: 981e 7fbf 8a02 e1bb 8ec5 8dbf 1768 293e
00000070: 866a 80bf 7e3a d03e 67f6 e0be 4ee3 923d
00000080: fdf8 943e 6fec f2be b8e3 0b3d 4782 873e
00000090: 2b8c 32be 2154 9a3f c839 38bf 4e72 90bf
000000a0: e36a eabd 64ad 533f 85c7 da3f fae6 83be
000000b0: 7ad0 e9be 2dc9 bf3f b41c a6be 777e 81bd
000000c0: 106d a7be e790 f3be 201f 30bf eda9 363f
000000d0: 97da 7dbe 1ff2 afbe 2fcd 473f cccd 923f
000000e0: 1268 c7be ea77 75be 9870 2a3f 3e24 dd3f
000000f0: 3031 813e 9555 ba3e 02f0 babe a773 f33d
00000100: 23b6 f2bd b07c 823e 3f68 40bf e7f3 593f
00000110: b392 503f 8708 15be a706 0080 56af bcbc
00000120: 4e01 0000 7600 0080 7c02 0000 1e84 c03e
00000130: 72b8 1bbf 6700 0080 260d 05bb de39 803c
7.33e-43 -1.142e-42 -4.39e-43 7.9e-43 -1.761e-42 2.1223812e-05 -3.28e-43 2.751e-42
-2.9422877e-06 8.3e-44 0.45896742 -1.0508991 -0.14341794 -0.042653665 0.18060759 0.29138312
-0.112289526 1.0322104 -1.3308175 -0.072912015 0.15621802 0.9625597 0.103521645 0.7088723
-0.9965606 -0.0068667578 -1.1075914 0.16543613 -1.0032508 0.40669626 -0.4393799 0.07172261
0.29096213 -0.4744601 0.034152716 0.2646658 -0.17436282 1.2056924 -0.7196317 -1.1284883
-0.11446168 0.8268645 1.7092139 -0.2576216 -0.45666867 1.4983269 -0.32443774 -0.063229494
-0.32700396 -0.4757149 -0.68797493 0.71353036 -0.24790417 -0.3436441 0.7804746 1.1469054
-0.38946587 -0.23971525 0.66578054 1.7276685 0.2523284 0.3639342 -0.36511236 0.11887293
-0.11851146 0.25485754 -0.75159067 0.8513779 0.81473845 -0.14554034 -2.386e-42 -0.023032825
4.68e-43 -1.65e-43 8.91e-43 0.37600797 -0.60828316 -1.44e-43 -0.0020302027 0.015652593

emb.15.weight f4 [8, 10]
00000000: 6b08 1dbe 8864 013c 0402 0080 f401 0000
00000010: 2f02 0000 f457 0420 2000 0000 d3d8 a53f
00000020: 4f01 0080 bba0 2b3f a9cd 0a40 d563 013e
00000030: ac9d ffbe 05d7 e53e 4dd4 86bd fc62 f4bd
00000040: 8add 97bf 214f e6bd 6694 873e e19e 3e3e
00000050: 9c20 d83e c40c 723e 83a4 0c3f 530d 873f
00000060: ca55 983e 79af acbf 3776 ab3e d01f 8fbf
00000070: 8f37 b3bf b936 833f 610a b5be 6446 34bd
00000080: 3e58 f73e 2e96 37bd 7285 0cbf 40cc 8d3e
00000090: 0594 253e 5eb6 703f b818 553f f6a8 df3c
000000a0: 8e41 523e 1383 2dbf fd22 8cbf 74ca 9abd
000000b0: 696d a73f af82 e33e 106e 973f 3ef4 aa3e
000000c0: 60a1 9c3f a817 253f 31aa 963e 054a fa3f
000000d0: 5cc2 ab3f 7d64 debe ea26 aa3f 5bcd 793f
000000e0: 9c08 72bf 496f 313e 4912 a3bf d8b8 a9bf
000000f0: ee38 933e 4485 83bd cb16 05bf b9c3 633f
00000100: f054 8b3f fb70 ff3d 10e5 55bf db64 c2bf
00000110: b0d1 c63f e84f 07be 1001 0000 d704 093c
00000120: bc00 0000 157d 4e3e 6c2e 572f fcea a03f
00000130: a800 0080 f6cd 51bf 9837 53b5 69e4 e9be
-0.15335242 0.007897504 -7.23e-43 7e-43 7.83e-43 1.1209936e-19 4.5e-44 1.2956795
-4.7e-43 0.6704213 2.1688025 0.12635739 -0.49924982 0.4489061 -0.06583462 -0.11932942
-1.1864483 -0.112455614 0.26480407 0.18615295 0.4221238 0.23637682 0.54938525 1.0550941
0.29752952 -1.349105 0.33488628 -1.1181583 -1.400133 1.0251075 -0.3535948 -0.044012442
0.4830951 -0.044820957 -0.5489112 0.27694893 0.16169746 0.9402827 0.8324084 0.027302247
0.2053282 -0.6777813 -1.0948178 -0.07558146 1.3080264 0.4443564 1.1830463 0.33389467
1.2236748 0.6448922 0.2942672 1.9553839 1.3418689 -0.4343604 1.3293126 0.9757897
-0.94544387 0.17327608 -1.2739955 -1.3259535 0.2875437 -0.06421903 -0.51987904 0.88970524
1.0885296 0.12472721 -0.83552647 -1.5187029 1.5532742 -0.13214076 3.81e-43 0.00836297
2.63e-43 0.20164903 1.9570628e-10 1.2571712 -2.35e-43 -0.81954896 -7.8684525e-07 -0.45682076

emb.16.weight f4 [8, 10]
00000000: f071 48be a0b6 d63e 06d1 0e3f ea1a 0e3f
00000010: 1545 2cbf 9ab9 04bf 8b10 093f 04d8 bc3f
00000020: 6497 bf3e 6eaa 383f 7152 26bf 5d01 8bbf
00000030: 8021 8b3f d347 b03e c301 313f 26f5 613f
00000040: 21c5 4b3f 5735 98be e9e6 4cbc ee66 d23e
00000050: 2b08 5c3f 3197 7cbf 3504 a43f 2bfc 9cbf
00000060: f74f 62bf ae3d 13bf 040e e03f 623b 383e
00000070: e698 c53e 8ccc dfbb 9c0c cbba 3126 523f
00000080: 5777 4dbf 2976 8cbe 6852 5fbf b6df 473f
00000090: a454 363e a77a e53d 95d4 a9bf e78a 9cbe
000000a0: 232a 3cbc ed17 88bd 6a19 e13e c2eb 923f
000000b0: 6c17 08be ac53 b8be 4eb9 b83e 99da 8a3f
000000c0: 548e a9be ff94 dabe 3fcf 4dbf c82d ce3d
000000d0: 75bf 033f b9c2 7cbf f07a 47bf 513f 0c3f
000000e0: c53d 87bf 6a55 4b3f 19c0 5dbf 0721 17bf
000000f0: 0572 c03f cbb8 62bf 826d b9bd 54f8 4bbe
00000100: 6389 2b3f 8a05 2c3f 78d1 c6bf 10e7 553e
00000110: 7e8b c3bd b38d 6ebf 5f00 0000 84bf 3abf
00000120: fe00 0000 8a01 0000 7883 0484 8101 0000
00000130: 1966 253c 6ef3 803f 9652 229b 8709 9cbe
-0.19574714 0.41936207 0.55787694 0.5550982 -0.6729291 -0.51845706 0.5354087 1.4753423
0.3742019 0.72135055 -0.64969546 -1.0859791 1.0869598 0.34429798 0.69143313 0.8826469
0.7959767 -0.29728195 -0.012506225 0.41094154 0.85949963 -0.986682 1.2813784 -1.2264456
-0.88403267 -0.5751599 1.7504277 0.17991403 0.38593215 -0.006829804 -0.0015491429 0.82089525
-0.80260223 -0.274339 -0.87235117 0.7807573 0.17805725 0.11205035 -1.3268 -0.30574724
-0.011484656 -0.066451885 0.43964702 1.1478198 -0.13290185 -0.36001337 0.36078876 1.0847961
-0.331164 -0.426918 -0.8039436 0.10067326 0.51464015 -0.98734623 -0.7792196 0.54784113
-1.0565726 0.79427207 -0.8662124 -0.5903477 1.5034796 -0.8856322 -0.0905409 -0.19918948
0.6700651 0.6719595 -1.5532675 0.20888925 -0.095480904 -0.93184966 1.33e-43 -0.7294848
3.56e-43 5.52e-43 -1.5576893e-36 5.4e-43 0.010095143 1.0074289 -1.3427011e-22 -0.3047602

emb.17.weight f4 [8, 10]
00000000: 6c55 853f 7a17 d93f ae31 de3d 6979 0e3f
00000010: 8ad2 913f 3eb9 8fbf 919a 9fbf 8761 10bf
00000020: deb0 513f e346 9abf 8532 193f f4c0 86bf
00000030: b036 8a3e cda9 173f 6029 9e3d de88 eebe
00000040: 7dbe 813f ca07 913f 9f8c 55bf d270 0fbf
00000050: 44ff 8b3f 72b8 923e 7229 27bf 0870 063f
00000060: ac74 1cbe ca9d 28bf 0dfd 8d3e a4a2 933f
00000070: 9daf 1940 9e3a f5be 7fd2 7e3e 373d 85bd
00000080: 1783 9abf 5480 683f 8e0a c23f cc30 65be
00000090: a213 40bf 7c46 08bf f665 1e3f 8d22 5ebe
000000a0: 7404 e2be 06db b03f 0549 dc3e 3c66 b8be
000000b0: 06bf 48bf 1798 bdbd 0eca 97bf a783 323f
000000c0: a1bc a83e 17a6 143f d5cb ecbb 9c9f 23bf
000000d0: d0fd e3bf 7cad c03f ce17 14bf a27a 3e3e
000000e0: c448 b1bf e6e6 9abe 5570 5f3f 785c 3bbe
000000f0: 2562 d63c 60a9 833f 98dd d43f f650 583f
00000100: 12bf a13d 34d5 a4be 197e 743e e3f9 283e
00000110: 3f14 11bf f1c3 233e e001 0080 0544 db3b
00000120: b708 0080 d7d0 093c 5821 ec3e 5a6c 333e
00000130: 5a03 0000 c705 0000 9d02 0000 0402 0000
1.0416694 1.696029 0.108493194 0.5565401 1.1392376 -1.1228406 -1.2469045 -0.56398815
0.819105 -1.2052883 0.5984271 -1.0527635 0.26994848 0.5924347 0.077227354 -0.46588796
1.0136257 1.1330502 -0.83417696 -0.56031525 1.0937276 0.28656346 -0.65297616 0.52514696
-0.15278882 -0.65865767 0.27732125 1.1534009 2.4013436 -0.47896284 0.24884985 -0.065058164
-1.2071255 0.90820813 1.5159471 -0.22381896 -0.7502996 -0.5323255 0.6187433 -0.21692868
-0.44144022 1.3816841 0.4302446 -0.360155 -0.7841648 -0.092575245 -1.1858537 0.69732136
0.32956412 0.58065933 -0.007226447 -0.6391542 -1.7811832 1.5052943 -0.57848823 0.18601468
-1.3850331 -0.30254287 0.8728078 -0.18296993 0.026169846 1.0286064 1.6630125 0.84498537
0.07897772 -0.3219391 0.23876227 0.16501574 -0.5667152 0.15992714 -6.73e-43 0.006691458
-3.126e-42 0.008411608 0.4611919 0.17521802 1.202e-42 2.073e-42 9.37e-43 7.23e-43

emb.18.weight f4 [8, 10]
00000000: 479b 0cbf 11b3 393f 4709 f83e df96 4e3e
00000010: d9db e93e 36d6 0fbf c1ee c93d 0987 673f
00000020: 1f60 03bd 53a1 4dbd ec82 13bf c2de acbd
00000030: aef9 2dbf 6a2d 853f 9996 36bf 92d7 883e
00000040: b3a1 34bf 9961 1a3f 7213 7a3e dfc0 343e
00000050: 01fe e03e 4f9e 8dbe 0fb0 4fbf f40e b63a
00000060: d684 463e 47cf 033f b89f 40bf d327 a7bf
00000070: f152 fc3c c30f 493f 48ef 8abe 4614 6a3d
00000080: 5a30 4940 ce1f c13f 98bb 43bf b752 a63e
00000090: 54ac 3c3d 1bde a03e 6f2f 2fbe 8157 9a3e
000000a0: 130c 61be be3d bcbf 42cf e83c 2d7b 573e
000000b0: 39e5 b13d 9e89 dbbe 1e83 c8bf 3d2e 953f
000000c0: 5007 adbf c184 423f 73eb cb3f 0bf4 b6bf
000000d0: 7a83 7c3f 399e 1d3b 2cdc 9f3b 3ec5 43bf
000000e0: 18ff 9b3f af87 093f 29e8 28bf 1a72 bebd
000000f0: 8220 39bf 1729 223e 1377 dcbe 71c8 a03f
00000100: 8dc9 273e cd89 3a3f 2466 cebe 8077 9f3f
00000110: 9536 29bf 180b c4bf b760 5ebd 8308 0080
00000120: ffc6 4226 fa00 0000 6078 5687 7300 0000
00000130: 0801 0000 be03 0000 6f03 0000 ff52 b938
-0.54924434 0.7253886 0.48444578 0.2017474 0.45675543 -0.56186235 0.09859992 0.9044042
-0.03207409 -0.05020268 -0.57621646 -0.08440925 -0.67959106 1.0404484 -0.71323544 0.26726967
-0.70559233 0.6030517 0.2442148 0.176517 0.4394379 -0.27659842 -0.8112802 0.0013889954
0.1938661 0.51488155 -0.7524371 -1.3059028 0.030801268 0.78539675 -0.27135682 0.05714824
3.1435761 1.5087831 -0.7645812 0.3248498 0.046062782 0.31419453 -0.17107938 0.30144885
-0.21977262 -1.4706342 0.02841914 0.21043082 0.08686299 -0.4287843 -1.5665014 1.1654736
-1.3517857 0.75983816 1.5931228 -1.4293226 0.9863812 0.0024050607 0.0048785415 -0.7647284
1.2187223 0.5372266 -0.6597925 -0.09299107 -0.7231523 0.15835987 -0.43059596 1.256117
0.1638548 0.7286652 -0.40312302 1.2458344 -0.6609891 -1.5315886 -0.054291453 -3.053e-42
6.757696e-16 3.5e-43 -1.6134946e-34 1.61e-43 3.7e-43 1.342e-42 1.232e-42 8.836947e-05

emb.19.weight f4 [8, 10]
00000000: 8b8d b5bf e575 04bf 001a 2e3f 4b1a 21bf
00000010: 9f4e a03f d7c7 eabf 453f 72be b1d7 273e
00000020: f38a f13e ff94 9e3f 05d4 55be fc50 f83e
00000030: 93cb d3be 7fc3 7abe a62b e73d a604 193f
00000040: 8f25 3abf 9825 303f 4657 9fbf c91c 473f
00000050: bd8d 9c3e 694a c7bc 6baa a6bd e197 b5bf
00000060: 2f37 ad3e aeb6 1fbf bf68 4bbe 6de2 e53e
00000070: 73fc 0f40 b39e 6cbe a60b 813f 16f7 9cbf
00000080: a1a6 eabf 699e 68bf 943c 36be 50cf 673f
00000090: 50ac 5d3d 2f69 033d 0bf2 9abe c64d 953e
000000a0: 4354 adbf 6df5 44bf 3890 203f 634c 4a3e
000000b0: 5ba2 01bf b0af 9a3e e043 ad3e 63ec 803e
000000c0: 29ea 05be 3205 d23e 5bc2 a3be 01b1 fdbe
000000d0: 885f eabf 31b3 1fbe 804b b23e 12f9 62bd
000000e0: 891b 43be 982a a93f c646 fabd 570d 52bf
000000f0: c521 9a3e 61fe 86be a8aa d03e 49c1 34bf
00000100: 89cf 8bbe 1b47 30bf f6fc 8e3e 2d92 8bbf
00000110: 65f7 8f3f b3eb 28bf baa3 21a9 cb7c 0ea4
00000120: 2d62 dc3d 4c01 0080 3b12 5ea2 270f 0080
00000130: ded5 943a 8100 0000 f17c 72be 55d2 063d
-1.418382 -0.5174239 0.6800842 -0.62930745 1.2523993 -1.8342236 -0.23656948 0.16390873
0.47176322 1.238922 -0.2088166 0.48499286 -0.41366252 -0.24488638 0.11287622 0.5977272
-0.7271356 0.68807364 -1.2448509 0.777783 0.30576888 -0.024327474 -0.081379734 -1.4186975
0.33831164 -0.6238812 -0.19864176 0.44899312 2.2497833 -0.23107414 1.008168 -1.2262905
-1.8332101 -0.90866715 -0.17796546 0.9055071 0.054119408 0.032082733 -0.3026279 0.291609
-1.354134 -0.7693699 0.6272006 0.19755702 -0.5063836 0.30212164 0.33840847 0.2518035
-0.13077606 0.4101959 -0.3198422 -0.49549106 -1.8310404 -0.155957 0.34823227 -0.055413313
-0.19053473 1.3216124 -0.1222053 -0.82051605 0.3010389 -0.2636595 0.407552 -0.7060743
-0.27306774 -0.688585 0.2792737 -1.0903984 1.1247374 -0.6598465 -3.589119e-14 -3.0897045e-17
0.10760913 -4.65e-43 -3.0096261e-18 -5.436e-42 0.0011355241 1.81e-43 -0.23680474 0.032915432

emb.20.weight f4 [8, 10]
00000000: 768f 433e 1ebe b4bf b75e a9bf b08d 4ebf
00000010: ddb9 9bbe 26f3 11bf 3977 633f dd0b 11bf
00000020: bd82 0d3f feef 6dbf 248b 9f3d c3c1 0abe
00000030: 77c5 3b3f 90fd 3abf eea3 373f 39b3 68bf
00000040: 2099 6a3f f76c 913c 5675 943e c05c 8bbe
00000050: feb4 c33e 1157 cf3d 5c5f a4be e58e f5bf
00000060: 9514 3bbf 5725 81bf 301e 39be 05e3 57bf
00000070: ba92 28bf d884 60be 88f3 863e f8d0 273f
00000080: 00ad 363f 7225 543f 03b3 933e ca66 b63e
00000090: a87b 763f 57f9 c4bf 7673 2abe 1de3 dbbe
000000a0: d7ee a3bf 41d3 503e c8e5 8e3e bce4 b53d
000000b0: 1272 48bf b337 d53d e791 b53f ad56 4abf
000000c0: 4585 20bf e753 4d3a 70bd 9bbe 90b8 47bf
000000d0: d8e9 cb3e 680d d93e c8d1 93bf 4fec 4f3f
000000e0: 289e 80be 1f3c 163f 9a4c a8bf 2b72 00bf
000000f0: b900 9c3d c405 b83e aa4d 31bf eaeb aabf
00000100: c922 e63d 1aa1 97bf e1ce a4be 2b77 bbbf
00000110: 6839 ae3f 5cc7 aabe e206 183e a801 0080
00000120: eef0 eb2e e902 0000 6301 0000 abfa c13e
00000130: 0f01 0000 7fbe 9d3c 0d01 0000 1f35 0b3e
0.19097695 -1.4120519 -1.323203 -0.8068495 -0.3041524 -0.5701164 0.88853794 -0.56658727
0.55277616 -0.92944324 0.07790211 -0.13550477 0.7334818 -0.73043156 0.7173451 -0.9089847
0.916399 0.017752154 0.2899577 -0.272192 0.38224024 0.101240285 -0.32104003 -1.9184233
-0.7307828 -1.008952 -0.18077922 -0.8433078 -0.65848887 -0.21925676 0.26357675 0.65553236
0.7135773 0.82869637 0.28847513 0.35625297 0.96282434 -1.5388592 -0.16645607 -0.4294671
-1.2807263 0.20393087 0.27909684 0.08881518 -0.7829906 0.104110144 1.4185151 -0.79038507
-0.62703353 0.0007832632 -0.30417967 -0.78015995 0.39826846 0.4239304 -1.1548395 0.81219953
-0.25120664 0.5868549 -1.3148377 -0.50174206 0.07617325 0.359419 -0.6925913 -1.3353245
0.112371035 -1.1846039 -0.32189086 -1.4645742 1.3611269 -0.33355224 0.14846376 -5.94e-43
1.07293605e-10 1.044e-42 4.97e-43 0.37886557 3.8e-43 0.019255875 3.77e-43 0.13594483

emb.21.weight f4 [8, 10]
00000000: f9ab 343e c08a ccbd d9fe d93e 9628 cabe
00000010: eb3d 33be 1cc7 443d 12d6 ec3e 9c27 a63f
00000020: 7a5c e03d 4d45 debf 7fea 1dbf 3b62 18be
00000030: 7d86 6fbf 25cc 993e 8664 69be ef75 883c
00000040: c146 05bf 501e aa3f b7e8 143e 9971 0c3f
00000050: e2fb 66bf a589 f0bd 7036 523f 971a 09bf
00000060: ce66 6e3f 688c 953f 6daa d3bd 010e 083f
00000070: 4217 3c3f 3408 60be be4a 7fbf f84b 0abf
00000080: 6698 dd3e ca74 47be 0a03 41bf 9961 63bf
00000090: 9764 b3bf fb99 60bf f560 d63f 9d4e 393e
000000a0: 9ca7 a0be 3492 303f da67 853f 17c4 2e3d
000000b0: fe9f 5a3f 1756 37bf d0d0 edbe 5775 ab3e
000000c0: be60 50bf 6a78 0bbe 589b 883f 7f95 573e
000000d0: 0a8d 903f 9f7b de3f 00ee b2bf 3b50 7bbf
000000e0: cdad 25bf 4bdd ba3e a58a 25bf 7451 dabf
000000f0: 476b 833f 4aef 3ebf b884 ac3c 88ac 8d3d
00000100: 822d fb3e 19e6 7c3e bf65 62bf 271c 9ebe
00000110: f368 873d 9b0f e1be d500 0000 2e00 0000
00000120: 37fd e08c ddac 0932 f101 0000 5a01 0000
00000130: 1002 0080 e501 0080 a436 de30 7683 10bf
0.17643727 -0.09987402 0.42577246 -0.3948409 -0.17504089 0.048041448 0.46257073 1.2980838
0.109551385 -1.7364899 -0.6168594 -0.14881222 -0.9356459 0.30038562 -0.22792253 0.016657798
-0.52061087 1.3290501 0.14541899 0.54860836 -0.9022809 -0.117450036 0.82114315 -0.535562
0.9312562 1.1683474 -0.103352405 0.5314637 0.7347299 -0.21878129 -0.9972342 -0.5402217
0.43280333 -0.19478145 -0.7539526 -0.888208 -1.4015073 -0.87734956 1.6748339 0.18096395
-0.31377876 0.6897309 1.0422318 0.042667475 0.8540038 -0.7161574 -0.46448374 0.3348796
-0.81397617 -0.13620153 1.0672407 0.21053122 1.1293042 1.7381476 -1.3978882 -0.98169297
-0.64718324 0.36496958 -0.6466468 -1.7056108 1.0267113 -0.74583876 0.021059379 0.06917673
0.49058157 0.2469715 -0.884365 -0.30880854 0.06611814 -0.4395722 2.98e-43 6.4e-44
-3.4665063e-31 8.013754e-09 6.96e-43 4.85e-43 -7.4e-43 -6.8e-43 1.6168156e-09 -0.56450593

emb.22.weight f4 [8, 10]
00000000: 99a2 80be 655b d43c 69d8 373e 0245 a6be
00000010: 7a05 62bf 8e08 0bbe 7018 28bf 0efa ef3f
00000020: b1f5 fdbe 6e13 7f3f 348c 343f 8253 cb3e
00000030: f892 aa3f 03c0 e1be ae1f 3a3f bd1b 4abf
00000040: b5d8 903e 1407 783e e4dc 69bf 4cf2 ab3f
00000050: c545 0740 c22b c03d 18c3 61bf ea7a de3e
00000060: d467 e3be a6c2 313f d6b3 5c3f 8b6d 323f
00000070: 39c4 323e 20e2 59bf 092a 573d 4c27 1ebf
00000080: f3d0 bebf 4477 8abf d6eb 723f 66ae acbe
00000090: 296c 883f 198a 7a3d c156 173e 4398 c7be
000000a0: ee9a 68bf f9dc 303e 9b39 4f3f 7941 e8be
000000b0: 0b50 403f 73b2 acbf ee23 623f ce66 1e3f
000000c0: 5ee8 103f 09e7 9bbf ee93 fdbe dbe3 a23f
000000d0: d091 2dbf 424e babf 180c 9dbf eb39 46bf
000000e0: 3781 1abf 4af3 81bf 0f20 2fbe cf00 2f3f
000000f0: 6444 693f d18f cdbe 8324 abbe f8be 833f
00000100: a346 003c e65c 29bf 0c57 39bf a4ea 903f
00000110: 9640 3a3e c3ad 823f 6001 0080 1b01 0000
00000120: 0905 0000 ad01 0080 4fed aabb c913 493e
00000130: 8f03 0080 ae01 0080 fa02 0080 0f04 0000
-0.25124052 0.025922487 0.17953648 -0.32474524 -0.88289607 -0.13577482 -0.6566229 1.8748186
-0.4960151 0.9963902 0.70526433 0.3971215 1.3326101 -0.44091806 0.7270459 -0.78948575
0.28290334 0.2422145 -0.9135268 1.3433318 2.1136334 0.09383346 -0.88188314 0.4345315
-0.44415152 0.69437635 0.8621191 0.696984 0.17457666 -0.85110664 0.052530322 -0.6177871
-1.4907516 -1.0817647 0.9489111 -0.33726805 1.0658008 0.061166856 0.14779188 -0.38983354
-0.90861404 0.17271794 0.80947274 -0.45362452 0.75122136 -1.3491958 0.88336074 0.6187562
0.56604564 -1.2179881 -0.49526924 1.2725786 -0.6780062 -1.4555132 -1.2269316 -0.77432126
-0.60353416 -1.0152371 -0.17102073 0.6836061 0.9111998 -0.40148786 -0.33426294 1.0292654
0.007829341 -0.66157377 -0.7239845 1.1321607 0.181887 1.0209278 -4.93e-43 3.97e-43
1.806e-42 -6.01e-43 -0.0052162777 0.19636454 -1.277e-42 -6.03e-43 -1.068e-42 1.456e-42

emb.23.weight f4 [8, 10]
00000000: b521 193f dac0 35be 8cc1 d3be 6e11 97be
00000010: 4e15 e93c 702c bbbe fcce 4d3f 7793 eb3d
00000020: f661 bbbb 0d47 253f c78f 3bbf 8a4b 6c3f
00000030: ba4b 0cbf d626 3a3d 046a 27bf c3e3 8bbf
00000040: 5ded 43be b45e 33be 5f9f 20bf ffe9 35bf
00000050: c3a9 febb b351 02bf 9c26 ea3f 33ae a8bf
00000060: 6da0 dd3f 9d7b 933f 0cdf 30be d3e4 c7bf
00000070: ed8f d3be 7f3c e2bf 030b 5dbf a074 a83f
00000080: 699b 163f fcb3 6e3f b6e4 813e ae07 f13e
00000090: b8ee 0dbf 5163 a43e 0b70 c8be 7d9a 903e
000000a0: 1750 3bbe c8a7 963e dc15 743f 21af 4e3d
000000b0: 953c 37bf 56df 733e b142 f7be ba0d 2e3f
000000c0: 879d a0be 6da0 fbbe 883a 68be 96a5 1dbd
000000d0: fe20 fdbd 9e2c dabe abfa 83be e219 fbbe
000000e0: 5d06 ee3e c84b 393f f5d5 9bbf 17ef 04c0
000000f0: 2e03 e7bf a985 12bf 43dd 473d da6b 773b
00000100: 6d76 483f 9798 563d ed49 a0be fb23 363f
00000110: d0d1 cebd 1506 42bf 5500 0000 de00 0080
00000120: ad50 85a3 e233 b81a 5e53 7bb6 1d07 0000
00000130: aa0b 0080 4f00 11be cad2 58b8 cc01 0080
0.5981706 -0.17749348 -0.41358602 -0.29505485 0.028452542 -0.3655734 0.8039396 0.11502736
-0.005718465 0.6456154 -0.7326626 0.92302763 -0.5480305 0.045447193 -0.6539614 -1.0928882
-0.19133516 -0.17516595 -0.6274318 -0.71060175 -0.007771702 -0.50905913 1.8293033 -1.3178161
1.7314583 1.1522099 -0.17272586 -1.5616707 -0.41320744 -1.7674712 -0.8634493 1.3160591
0.5883089 0.93243384 0.25369805 0.47076172 -0.5544238 0.32107022 -0.39147982 0.28242865
-0.1829227 0.29424882 0.95345855 0.050459985 -0.71576816 0.23815665 -0.4829307 0.67989695
-0.31370184 -0.49145833 -0.22678578 -0.038487993 -0.123598084 -0.42612165 -0.25777182 -0.49043185
0.4648923 0.7238126 -1.217467 -2.077093 -1.8047845 -0.572352 0.048794996 0.0037753494
0.78305703 0.052391615 -0.313064 0.7114865 -0.10098612 -0.7579053 1.19e-43 -3.11e-43
-1.4454056e-17 7.618444e-23 -3.745044e-06 2.552e-42 -4.184e-42 -0.14160274 -5.1694726e-05 -6.45e-43

emb.24.weight f4 [8, 10]
00000000: 40b1 3bbf f2c4 09bf c3e3 4d3f 34bd c63f
00000010: 73ae 77bf 3fff bebd 5082 ed3e e616 93bf
00000020: f14d 0bbe c48d e9bd 37ca 743d f1ba 183f
00000030: 0204 b1be 87bc b5bf 62ce 38bf 4199 97be
00000040: 5639 6cbf e5d7 00bf 564b b7be b6b0 e33d
00000050: ae2d 833e a16c c23e ba07 17bf 0384 17bf
00000060: 91d3 c63e 8484 9cbf ac4b 11be 61bf 4bbe
00000070: 9e98 92be 60b7 1b3f a287 4bbc 92d1 98be
00000080: ea56 cd3f 54a6 0fbf e7b9 a43e 1e66 ac3e
00000090: 471d 1ebf 7e7b debd 18b7 9f3e 03dc f5bd
000000a0: 43d5 bdbe 6d27 3d3d d1a2 083f 796a 38be
000000b0: 798e 9a3f 6f94 363f 8b39 d53e f280 b53f
000000c0: 2afa 223d 22f8 f73e e601 6dbd dd74 44bd
000000d0: 39af 903f fd37 123e 35d1 afbe 8678 08be
000000e0: 3582 bfbe 9e15 dc3d 442c e83e 6e6e 883f
000000f0: 8322 323f f683 973e 4e96 17bf 948b aabe
00000100: 960f f93e f0f5 19bf 84e2 d13d 9d42 eb3d
00000110: 7941 64bf 3a10 04c0 ad0a 0000 9901 0080
00000120: a63a 33be 0300 0000 ca1a 8a3e 2002 0000
00000130: dd02 0080 6601 0000 6a04 0080 d101 0000
-0.7331734 -0.5381614 0.8042566 1.552649 -0.96750563 -0.09326028 0.46388483 -1.1491363
-0.13603951 -0.11403993 0.05976316 0.5966025 -0.3457337 -1.4198159 -0.72189915 -0.2960911
-0.9227499 -0.5032943 -0.35799664 0.11117689 0.25620788 0.37973502 -0.58996165 -0.5918581
0.38833287 -1.222794 -0.14189023 -0.19897224 -0.28632063 0.60826683 -0.012422474 -0.2984739
1.6042149 -0.5611317 0.32173082 0.3367166 -0.61763424 -0.10863398 0.31194377 -0.120048545
-0.37076768 0.046180177 0.5337344 -0.18009366 1.2074729 0.7132024 0.41645464 1.4179976
0.039789356 0.48431498 -0.05786314 -0.047963012 1.1303474 0.1427917 -0.343393 -0.13327226
-0.37404028 0.10746311 0.45346272 1.06587 0.6958391 0.29592866 -0.5921372 -0.33309615
0.48644704 -0.60140896 0.102482826 0.11487315 -0.89162403 -2.0634904 3.83e-42 -5.73e-43
-0.17502841 4e-45 0.26973563 7.62e-43 -1.027e-42 5.02e-43 -1.583e-42 6.52e-43

emb.25.weight f4 [8, 10]
00000000: 00bd e5bd 0dc7 813f 437b 083f f70c 2dbe
00000010: b3f4 573f a838 a1be 9b9c e03e d781 91bf
00000020: 036f ae3f 3151 6bbe 221d 7a3f 40ee 99bf
00000030: d4f8 863f 5298 ecbe 063d fabe 3f40 81be
00000040: 0378 ebbe 83d9 a4bf 8287 743e 98df cb3d
00000050: 09a0 c53d a1e5 e43d 8a8d e3be 9678 373f
00000060: a964 9fbe a682 273e a06f 3fbc 05d2 ab3e
00000070: 7236 9d3d 087d 24be 92fe 4e3f 50d3 09be
00000080: f0a6 9cbe 9857 47bf f280 e63e 6f75 b73f
00000090: 1d4e 203d fbec f9be 1e9c ff3e 1623 dabc
000000a0: 6a7e 953e b6f9 c73d 5f3f 16bf f823 13be
000000b0: 5ee9 92bf 3546 e0be 03cd a3bf 5855 423f
000000c0: c8dd fb3e ab22 fa3e 2139 473d ac57 95be
000000d0: 1cc4 ddbe 480e a0be 9928 4cbf 4943 77bf
000000e0: 1e18 cabe 594e 02be f836 d53e c52c b4bf
000000f0: 194a 58bf d9a9 0abf 211e 9a3e e0ee 12bf
00000100: 32e0 233f 210f 803f 5ba2 d03d b88e 9dbc
00000110: 6fd1 a6be d824 8a3c e598 03b9 1c01 0000
00000120: 92a8 a835 4970 90bf 3205 0080 7044 ac2d
00000130: 2101 0080 8526 c520 613b 86ab 0389 be3e
-0.112176895 1.013887 0.5331308 -0.16899477 0.84357756 -0.31488538 0.4386948 -1.1367749
1.3627628 -0.22980191 0.97700703 -1.2025833 1.0544686 -0.4620996 -0.48874682 -0.25244328
-0.4599 -1.2878879 0.23879817 0.099547565 0.09649665 0.11176611 -0.44443923 0.71668375
-0.31131485 0.16358432 -0.011684328 0.3355867 0.076764 -0.1606332 0.80857193 -0.13459516
-0.30596113 -0.7786803 0.45020252 1.4332713 0.039136995 -0.48813614 0.49923795 -0.026628058
0.2919801 0.097644255 -0.58690447 -0.1436919 -1.1477468 -0.43803564 -1.279694 0.75911474
0.49192643 0.48854575 0.048638467 -0.2916845 -0.43313682 -0.31260896 -0.7974945 -0.96587044
-0.39471525 -0.127252 0.416435 -1.4076163 -0.84488064 -0.54165417 0.30101112 -0.57395744
0.6401397 1.0004617 0.10187217 -0.019233093 -0.3258166 0.016863272 -0.00012550091 3.98e-43
1.2566036e-06 -1.1284267 -1.864e-42 1.9584528e-11 -4.05e-43 3.3398588e-19 -9.537754e-13 0.37213907
